framework/vis_embedding_scripts/embedding_networks/embedding_model_withNormConstraints_PointMass_dim3.pt (torch, 7575 bytes, 6 tensors)

fc1.weight f4 [32, 7]
0	0xbb39735c	-0.002829752
1	0x3e4f9f6e	0.20275661
2	0xbea64027	-0.3247082
3	0xbe8e6ad5	-0.2781588
4	0xbe07962d	-0.13240881
5	0x3db3ed00	0.087854385
6	0xbc65b22c	-0.01401953
7	0x3e997030	0.29968405
8	0xbd096370	-0.033542097
9	0x3e62649f	0.22108696
10	0xbde9ef38	-0.114225805
11	0xbe8fa4e5	-0.28055492
12	0xbe83be1b	-0.25730976
13	0xbe1a4c16	-0.15068087
14	0xbe1f8b86	-0.15580568
15	0x3c656518	0.014001153
16	0x3dd4cf82	0.103911415
17	0x3e683aee	0.2267873
18	0xbf1098b8	-0.5648303
19	0xbe8af7e9	-0.27142265
20	0x3d8ba0ae	0.068177566
21	0x3ea0b1e2	0.31385714
22	0xbd9f4dd3	-0.07778516
23	0x3ea9b6a1	0.33147147
24	0xbd7988e9	-0.060921583
25	0x3d79313c	0.06083797
26	0x3ed41ff6	0.41430634
27	0xbec116b3	-0.3771263
28	0xbe73a753	-0.23794298
29	0xbdc3f7ca	-0.095687464
30	0xbe11672d	-0.14199515
31	0x3ea73315	0.3265616
32	0xbf103784	-0.5633471
33	0xbe65efa0	-0.22454691
34	0xbd70ef7c	-0.05882214
35	0xbeb53dc1	-0.35398677
36	0xbe61eda8	-0.22063315
37	0x3dbd062a	0.09229691
38	0x3e2cb3d1	0.1686547
39	0x3f060ba1	0.52361494
40	0xbddc4cce	-0.10756837
41	0xbec45d70	-0.38352537
42	0x3d82f604	0.0639458
43	0xbeb4afc2	-0.35290343
44	0xbdf444bd	-0.11927173
45	0xbe47874a	-0.19485202
46	0x3e7e4c5e	0.2483382
47	0x3ead43ab	0.3384069
48	0xbe00f00e	-0.12591574
49	0xbc5f7155	-0.01363786
50	0x3e778863	0.24173121
51	0x3efec81b	0.49762043
52	0x3e199b88	0.15000737
53	0x3e108ca5	0.14116152
54	0x3eb2f363	0.34951314
55	0x3d8e334f	0.0694338
56	0x3d903e59	0.07043142
57	0xbe960911	-0.29303792
58	0xbea5d343	-0.32387742
59	0xbe47efad	-0.19525023
60	0x3e952e1f	0.2913675
61	0x3e28e2f0	0.1649282
62	0x3e02cd9a	0.12773743
63	0x3de9da38	0.11418575
64	0x3e5478c3	0.20749192
65	0xbd86aa2f	-0.06575429
66	0x3c6c711f	0.014431267
67	0xbd0dfad4	-0.034663036
68	0x3e8c9762	0.27459246
69	0x3ee19695	0.44060197
70	0xbe95211f	-0.29126832
71	0xbe0dd63b	-0.13851254
72	0x3dd1033c	0.10205695
73	0x3ea056cd	0.31316224
74	0x3f10c94d	0.5655716
75	0x3ef2a343	0.47390184
76	0xbd4361ad	-0.047700573
77	0xbea8479c	-0.32867134
78	0x3d0e6ae1	0.034769896
79	0xbe580f53	-0.21099596
80	0xbeb45987	-0.35224554
81	0x3e8fbc72	0.2807346
82	0x3f0a2b22	0.53972065
83	0xbe2bce99	-0.1677803
84	0x3d90e26f	0.07074439
85	0xbd82666a	-0.0636719
86	0xbd3d312e	-0.04618948
87	0xbe312b10	-0.17301583
88	0x3f0ea436	0.55719316
89	0xbec7f1a4	-0.39051545
90	0x3e240a61	0.16019584
91	0x3e43ba20	0.1911397
92	0x3e8a88ad	0.270574
93	0x3da0ca0c	0.078510374
94	0xbebf8809	-0.37408474
95	0xbee3f289	-0.44520977
96	0x3e900353	0.28127536
97	0xbd55dcb7	-0.052212443
98	0xbe96f5cc	-0.29484403
99	0xbe5edcd7	-0.21763931
100	0x3edd6842	0.43243605
101	0x3e826550	0.2546792
102	0xbea3dbda	-0.3200367
103	0xbdd0b5b4	-0.10190907
104	0xbed77095	-0.4207808
105	0xbbde9cba	-0.0067935856
106	0xbe91baf6	-0.28462952
107	0xbe6c62f2	-0.2308462
108	0xbcaa9aa5	-0.020825693
109	0x3eabfd15	0.33591524
110	0xbe9d01e5	-0.30665508
111	0x3e2027b6	0.15640149
112	0xbe6b86bc	-0.23000616
113	0x3eaf979f	0.34295365
114	0x3eb58c72	0.35458714
115	0xbea330b5	-0.31873098
116	0xbe2fab13	-0.17155103
117	0xbcef5060	-0.02921313
118	0x3e49b1c8	0.19696724
119	0x3db796fc	0.08964345
120	0x3e17e23b	0.14832394
121	0xbe538a80	-0.20658302
122	0xbe3cd887	-0.18441974
123	0x3f4dddbf	0.8041648
124	0xbf07c820	-0.5303974
125	0x3d3ec8e4	0.046578303
126	0xbdc1c5ec	-0.09461579
127	0xbe3c87bc	-0.18411154
128	0xbe240ff5	-0.16021712
129	0xbe9e9c84	-0.30978787
130	0xbd65a409	-0.05606464
131	0x3d545a14	0.051843718
132	0xbe885e12	-0.2663427
133	0xbc9ee63d	-0.019396896
134	0x3e8a87a6	0.27056617
135	0xbe75384c	-0.23947257
136	0x3c2c1af1	0.01050447
137	0xbd894dc2	-0.06704284
138	0x3c7a0f2f	0.015262409
139	0x3ef064e9	0.46951988
140	0x3eb74f1b	0.3580254
141	0x3e75ca0c	0.24002856
142	0x3eaeeeee	0.34166664
143	0xbcdfedaf	-0.027335016
144	0xbf096333	-0.5366699
145	0xbec9c659	-0.3940914
146	0x3e83f5e0	0.25773525
147	0xbb2092a9	-0.0024501479
148	0xbe405fe8	-0.18786585
149	0xbe2c34e2	-0.16817048
150	0xbeb51aa2	-0.35371882
151	0xbf29a1f3	-0.6626274
152	0xbe9663f5	-0.29373136
153	0x3e92df5f	0.28686044
154	0x3e513f52	0.20434311
155	0xbebaa27f	-0.364521
156	0x3e97483d	0.295473
157	0xbe976df4	-0.29576075
158	0xbe746ad4	-0.23868877
159	0xbe4eb664	-0.20186764
160	0xbdb79345	-0.08963636
161	0xbd97fbb6	-0.07421057
162	0xbeada738	-0.3391664
163	0xbea71732	-0.32634884
164	0xbd7240a5	-0.05914368
165	0x3ba02ab8	0.004887905
166	0xbe2fd210	-0.17169976
167	0x3e11cbc7	0.14237891
168	0xbeae2d65	-0.34019008
169	0xbcd0f5b0	-0.025507778
170	0x3ee78f46	0.45226496
171	0xbe1dde65	-0.15416868
172	0x3f3ad2e8	0.7297807
173	0x3e885344	0.26626027
174	0xbe68baa8	-0.22727454
175	0x3e74e05c	0.23913711
176	0xbd32a5a7	-0.04361501
177	0xbe0b3e87	-0.13598071
178	0x3e9abf45	0.30224052
179	0xbf24685f	-0.6422176
180	0x3e2b1719	0.1670803
181	0xbd846220	-0.06464028
182	0x3e8a318a	0.2699092
183	0x3dd813e7	0.10550671
184	0x3e8b203c	0.2717303
185	0x3e08af62	0.13348153
186	0xbebd2c18	-0.36947703
187	0xbe02b779	-0.12765302
188	0xbe3d34a3	-0.1847711
189	0x3e51b686	0.20479783
190	0x3e99a61e	0.3000955
191	0x3e2e79ee	0.170387
192	0xbe8880d6	-0.26660794
193	0x3ef05110	0.46936846
194	0xbee0e5e5	-0.43925396
195	0xbda75a40	-0.08171511
196	0xbe61871d	-0.22024198
197	0x3e04447a	0.12916747
198	0xbd7fc897	-0.062447157
199	0xbc071ac6	-0.008246129
200	0x3e5bc654	0.21462375
201	0x3ea096f7	0.31365177
202	0xbe115212	-0.14191464
203	0xbe84da33	-0.25947723
204	0xbe60bc98	-0.21946943
205	0x3e780df0	0.24224067
206	0xbe0b2032	-0.135865
207	0x3f08dd28	0.5346246
208	0x3ea977a7	0.330991
209	0x3d8cc55b	0.0687358
210	0xbb3863fb	-0.0028135765
211	0xbd990504	-0.0747166
212	0x3e2df424	0.16987664
213	0xbdb0c14b	-0.08630618
214	0xbf1279d8	-0.5721717
215	0x3e26edcb	0.16301648
216	0xbe03153d	-0.1280107
217	0xbe4adb87	-0.19810306
218	0x3e9c43a4	0.30520356
219	0xbe52292a	-0.20523515
220	0xbcde551a	-0.027140189
221	0x3f02c1b1	0.510768
222	0x3e9c3d19	0.30515364
223	0x3e095499	0.13411178

fc1.bias f4 [32]
0	0xbeaeae24	-0.34117234
1	0x3e9ddaa1	0.30830863
2	0xbea1241c	-0.31472862
3	0xbd704075	-0.05865522
4	0xbdf8caea	-0.12148078
5	0xbe93bfa2	-0.28857142
6	0x3e21c227	0.1579672
7	0x3ede0345	0.4336187
8	0xbc7156d6	-0.014730176
9	0x3ea41767	0.32049105
10	0x3e3d26e5	0.18471868
11	0xbe5a9e36	-0.21349415
12	0x3e3dfac5	0.18552692
13	0xbea8f521	-0.3299952
14	0xbdaaa694	-0.083325535
15	0x3e2ffe2d	0.17186804
16	0x3e61a859	0.22036876
17	0x3d5e9085	0.054337043
18	0xbe1941a9	-0.14966454
19	0xbe4cd004	-0.20001227
20	0x3e35aa96	0.17740855
21	0xbe79ea75	-0.24405845
22	0x3eaa7a99	0.3329666
23	0xbea00633	-0.3125473
24	0x3e0015fd	0.12508388
25	0xbd0115e3	-0.031515013
26	0xbddf200e	-0.10894786
27	0xbd1cc03f	-0.038269278
28	0x3ef35eae	0.47533172
29	0xbe07fb5f	-0.13279484
30	0xbdd0c64e	-0.101940736
31	0xbd1cd0d9	-0.03828511

fc2.weight f4 [32, 32]
0	0xbe320df7	-0.1738814
1	0xbd8bb0aa	-0.06820805
2	0xbd0fc188	-0.035096675
3	0x3bcee566	0.0063139675
4	0xbf10546f	-0.56378835
5	0x3d430f3b	0.047621947
6	0x3d9013af	0.07035004
7	0x3e5bea73	0.21476154
8	0x3e706dac	0.23479337
9	0x3dfbae0e	0.12289058
10	0x3d02db97	0.0319477
11	0x3c1741c3	0.009231987
12	0x3e5389b3	0.20657997
13	0x3e9ab3d9	0.30215338
14	0xbd1e1682	-0.038595684
15	0x3ec3c1a0	0.38233662
16	0xbdaa94a2	-0.08329131
17	0xbe85720d	-0.26063576
18	0xbda73cbf	-0.08165883
19	0x3c1c5864	0.009542558
20	0x3e10b912	0.14133099
21	0xbeaab71d	-0.3334283
22	0xbdba6b0c	-0.09102449
23	0x3d4f7188	0.05064538
24	0xbb1f4e5c	-0.002430818
25	0xbe78672b	-0.24258105
26	0x3d1379f0	0.03600496
27	0x3e949931	0.29023126
28	0x3dde59c3	0.108569644
29	0x3e572cb0	0.2101314
30	0xbca68367	-0.02032633
31	0x3e8a3bfd	0.26998892
32	0xbd25944a	-0.040424623
33	0xbc8ae5dc	-0.016955309
34	0xbddc7f5f	-0.107664816
35	0x3d549770	0.051902235
36	0x3d64edb7	0.055890765
37	0xbc3ef806	-0.011655813
38	0xbd3778cb	-0.04479293
39	0xbdefa67f	-0.117016785
40	0x3e06b079	0.13153256
41	0xbe0f1386	-0.13972291
42	0x3d840ce3	0.064477704
43	0xbd8410b5	-0.06448499
44	0xbdbf469b	-0.09339639
45	0x3d0213b1	0.03175706
46	0xbdce6918	-0.10078639
47	0x3d4c16b6	0.049826346
48	0x3cd697ae	0.026195373
49	0xbe0f1c24	-0.13975579
50	0x3cf11d9b	0.029433062
51	0x3d9a33ed	0.07529435
52	0x3d79e651	0.061010662
53	0xbcb64ab4	-0.022252418
54	0xbe1d3855	-0.1535352
55	0xbcdf3d2a	-0.027250845
56	0x3d5af36e	0.05345481
57	0xbd841981	-0.06450177
58	0x3d6c091d	0.05762588
59	0x3de0592d	0.10954509
60	0xbdcab998	-0.098986804
61	0xbbcca5a1	-0.0062453304
62	0x3d95b3df	0.07309698
63	0x3be9e15d	0.007137461
64	0x3c8883ce	0.016664412
65	0x3e1516a6	0.14559421
66	0xbe1f8fcb	-0.15582196
67	0xbc1d3a56	-0.009596428
68	0xbea37a63	-0.3192931
69	0x3e155ac0	0.145854
70	0x3e99ff72	0.30077702
71	0x3da852fa	0.082189515
72	0x3dd814db	0.10550853
73	0xbd46ebcd	-0.04856472
74	0xbefc765d	-0.49309054
75	0x3ec17492	0.3778425
76	0xbef336af	-0.47502658
77	0x3e117130	0.14203334
78	0xbe05153e	-0.12996385
79	0x3cc0aa9a	0.02351885
80	0x3e70dd82	0.23521999
81	0x3e71be24	0.23607689
82	0x3e0cb045	0.13739116
83	0xbd15c95a	-0.036568977
84	0x3d82310b	0.063570105
85	0xbedca08b	-0.43091235
86	0x3e86ee72	0.26353794
87	0x3dcae10c	0.099062055
88	0xbf711a9f	-0.94181246
89	0x3e488add	0.19584222
90	0x3e0e88f7	0.13919435
91	0x3dea5a2f	0.114429824
92	0xbe8eb26d	-0.27870503
93	0xbe62da8b	-0.2215368
94	0xbe07f25a	-0.13276044
95	0xbe4936d3	-0.1964982
96	0xbceb0748	-0.028689995
97	0x3ec2cf56	0.3804881
98	0x3e2ac0c4	0.16675097
99	0x3e06c397	0.13160549
100	0x3e053195	0.13007195
101	0xbe0db096	-0.13836893
102	0xbe7ad67d	-0.24495883
103	0xbd313f1e	-0.043273084
104	0xbd7b9821	-0.06142438
105	0xbe8db700	-0.2767868
106	0xbe3c616d	-0.1839654
107	0x3dd6f125	0.104952134
108	0x3d8edb90	0.06975472
109	0x3eba1d51	0.36350492
110	0x3e0958fc	0.13412851
111	0xbe8f6db1	-0.28013375
112	0xbe206123	-0.15662055
113	0xbe601049	-0.21881212
114	0xbdfda49f	-0.123849146
115	0x3e2fcb45	0.17167385
116	0xbc802911	-0.015644582
117	0x3e66608b	0.22497766
118	0xbe047845	-0.12936504
119	0xbdcd8bbd	-0.100364186
120	0x3d94c178	0.07263464
121	0x3eda7629	0.42668274
122	0x3ec29478	0.38003898
123	0x3f095655	0.5364736
124	0x3e82a2a1	0.255147
125	0xbe56a23c	-0.20960325
126	0x3e91a498	0.28445888
127	0x3e2aabfb	0.16667168
128	0x3d566613	0.05234344
129	0x3e0e1fed	0.13879366
130	0xbcb79e6c	-0.022414409
131	0x3e1867a8	0.14883292
132	0x3e08a5b7	0.13344465
133	0x3d986a75	0.0744218
134	0x3e2b3147	0.16718017
135	0xbcb99d12	-0.022657905
136	0xbddd6406	-0.108100936
137	0xbe54c917	-0.20779835
138	0xbe4cd216	-0.20002016
139	0x3ea5d00b	0.32385287
140	0x3e9441ff	0.289566
141	0x3cdced6e	0.026968684
142	0x3d6c4fc9	0.057693277
143	0x3d6d068e	0.05786758
144	0x3d8ac982	0.06776716
145	0x3f4a360e	0.7898873
146	0xbda13747	-0.078718714
147	0x3f06dd3c	0.52681327
148	0x3dc9f27f	0.098607056
149	0xbef9131f	-0.486474
150	0x3e264c7c	0.16240114
151	0x3e09761a	0.13423958
152	0xbc8f2cbe	-0.01747739
153	0x3e9cabed	0.3059992
154	0xbe430dcc	-0.19048232
155	0x3e957d3d	0.29197112
156	0x3e30f870	0.17282271
157	0xbd6bf96f	-0.057610925
158	0xbe8f8257	-0.2802913
159	0xbe4e29b8	-0.20133102
160	0xbd741d20	-0.05959809
161	0xbcfbb289	-0.03072478
162	0x3e161d2a	0.14659563
163	0x3e34dd44	0.17662531
164	0xbeee6cc8	-0.46567369
165	0xbe3eedac	-0.18645352
166	0xbeb035bc	-0.34415996
167	0x3e0e8550	0.13918042
168	0xbe7b78df	-0.24557827
169	0xbd6a53ef	-0.05720895
170	0xbea81c86	-0.32834262
171	0xbda8af40	-0.08236551
172	0xbfc01790	-1.5007191
173	0x3e599c85	0.21251114
174	0xbe2f010f	-0.17090248
175	0xbe8029f4	-0.25032008
176	0x3e92f43e	0.28701967
177	0x3c925bf7	0.017866118
178	0xbde41c30	-0.11138189
179	0x3b888dd8	0.0041672997
180	0x3e5c8ca3	0.21538024
181	0xbe9d661c	-0.30741966
182	0x3e423d14	0.18968612
183	0xbe24578a	-0.16049019
184	0xbf7393f6	-0.95147645
185	0x3bab25d7	0.0052230167
186	0x3d3896e4	0.045065776
187	0x3d0aace4	0.033856288
188	0xbe78e447	-0.24305831
189	0xbe14bd18	-0.14525259
190	0x3d00f54f	0.031483945
191	0xbedb27dd	-0.4280385
192	0x3c953dc0	0.018217921
193	0xbeaa313a	-0.33240682
194	0xbe5448b6	-0.20730862
195	0x3e2b314a	0.16718021
196	0xbf2bea69	-0.67154557
197	0x3d8e8d7e	0.06960581
198	0xbe53a430	-0.20668101
199	0x3e8a1c53	0.26974735
200	0xbd9a0557	-0.0752055
201	0x3e6c2e45	0.23064525
202	0xbcb4cbcd	-0.022069836
203	0xbe42b8b5	-0.19015773
204	0xbf034ed4	-0.5129216
205	0xbe0a814a	-0.13525882
206	0xbea7b556	-0.32755536
207	0xbdabab18	-0.08382243
208	0x3e418aed	0.18900652
209	0xbcbbf556	-0.022944134
210	0x3c89cd37	0.016821487
211	0xbe76aaed	-0.2408864
212	0xbdc5ec8a	-0.09664257
213	0xbe0d301d	-0.13787885
214	0x3d2bfb06	0.04198744
215	0x3e328e8c	0.1743719
216	0x3e0bde20	0.13658953
217	0x3dcb25f5	0.09919349
218	0xbde7a46c	-0.11310658
219	0xbee59ba2	-0.448453
220	0xbe0141a5	-0.12622698
221	0x3e531a5e	0.20615527
222	0x3c8c8c5d	0.017156774
223	0x3e143442	0.1447306
224	0xbe02b5b6	-0.1276463
225	0xbe8780a2	-0.26465327
226	0xbf03a983	-0.5143053
227	0x3dc2f203	0.09518816
228	0xbe18c8bf	-0.14920329
229	0x3ebbd163	0.36683187
230	0x3e21efb4	0.15814096
231	0x3e03334f	0.12812541
232	0xbc6fe4ed	-0.0146419825
233	0x3caef4b5	0.02135692
234	0x3cd5e36d	0.026109422
235	0x3d987bfa	0.07445522
236	0x3f3bfb51	0.73430353
237	0x3d9509cf	0.072772615
238	0x3ee2238e	0.4416775
239	0xbdf38e18	-0.118923366
240	0xbe2dd409	-0.16975416
241	0xbf3177b0	-0.69323254
242	0x3e177bb7	0.14793287
243	0x3e501709	0.20321287
244	0xbee2e582	-0.44315726
245	0xbf22f337	-0.63652366
246	0xbeb64ce0	-0.35605526
247	0x3dd64c21	0.10463739
248	0x3e62e4ae	0.22157547
249	0xbf63f8c9	-0.8905149
250	0x3b128ff2	0.002236363
251	0x3e598a7e	0.21244237
252	0xbce03f82	-0.027374033
253	0x3e1a2533	0.15053253
254	0x3e8bde1f	0.27317902
255	0x3e1fd9fa	0.15610495

fc2.bias f4 [32]
0	0xbdda2b79	-0.10652823
1	0xbceaeb73	-0.028676724
2	0x3e239d51	0.1597798
3	0xbd842070	-0.064514995
4	0x3df59ff8	0.11993402
5	0x3d0f7324	0.035021916
6	0x3d922f25	0.07137898
7	0x3e247b43	0.16062646
8	0xbd7a66e2	-0.061133273
9	0xbdfb7cae	-0.1227964
10	0x3e16227d	0.14661594
11	0x3e24e2df	0.1610217
12	0xbcff0cb7	-0.031133993
13	0x3dcce33a	0.100042775
14	0xbe19345d	-0.14961381
15	0xbde9b3f1	-0.11411274
16	0x3d7a1c62	0.061062224
17	0x3d7f6b05	0.06235792
18	0x3e91e876	0.28497666
19	0xbdad8e8b	-0.084744535
20	0x3dce6dad	0.10079513
21	0x3e24073d	0.16018386
22	0x3d260dba	0.040540434
23	0x3ba3f7de	0.0050039133
24	0x3e8f8751	0.28032926
25	0x3e23fb34	0.16013795
26	0xbda62c6b	-0.08113941
27	0xbe014648	-0.12624466
28	0xbe21f135	-0.1581467
29	0x3e4c97b5	0.19979747
30	0x3e714174	0.23560125
31	0x3e3edf9b	0.18639986

fc3.weight f4 [3, 32]
0	0xbdeb107c	-0.114777535
1	0xbdf67f37	-0.12035983
2	0xbd3f6e71	-0.046736185
3	0x3e62d040	0.22149754
4	0xbe933e7b	-0.28758606
5	0xbe4909bb	-0.19632618
6	0x3ec0fae2	0.37691408
7	0xbe0440bc	-0.12915319
8	0x3a6860a7	0.00088645
9	0x3d016f4f	0.031600293
10	0xbe2a0eff	-0.16607283
11	0xbdf3b245	-0.118992366
12	0xbe2c5c54	-0.16832095
13	0x3d52936c	0.051410124
14	0xbec01358	-0.37514758
15	0xbe0b5582	-0.13606837
16	0xbd579f95	-0.052642424
17	0xbe3a48ae	-0.18191788
18	0xbd6f0cf6	-0.05836197
19	0xbe1e1dfd	-0.15441127
20	0x3e9f1335	0.3106934
21	0x3df7a64b	0.12092265
22	0xbf02a701	-0.5103608
23	0xbf15870d	-0.58409196
24	0x3dde4da6	0.10854654
25	0xbc89365d	-0.016749555
26	0x3d3eef43	0.046614897
27	0x3d475e59	0.04867396
28	0xbde3e6a1	-0.11127973
29	0x3d77e5ee	0.060522012
30	0xbd8dfbb5	-0.06932775
31	0x3e9943ae	0.29934448
32	0xbd3bab89	-0.045817886
33	0xbd5c8b8a	-0.053844012
34	0x3f222517	0.63337845
35	0xbf0c4225	-0.5478843
36	0x3ced2dfb	0.02895259
37	0x3f19400c	0.5986335
38	0xbeb41255	-0.35170236
39	0x3ebb924e	0.3663506
40	0x3e15259c	0.14565128
41	0x3e2868d3	0.16446237
42	0x3e21a674	0.15786153
43	0x3e9b5921	0.30341437
44	0xbe1338d6	-0.1437715
45	0x3e207fa1	0.15673687
46	0x3eb104ae	0.34573883
47	0x3d14b1e1	0.03630245
48	0x3dd59b06	0.10429959
49	0x3ed218f6	0.4103467
50	0xbecd4caa	-0.40097553
51	0x3f041b8a	0.5160452
52	0x3eb63a12	0.3559118
53	0x3ebfd7ae	0.37469238
54	0xbe397266	-0.18110046
55	0xbf381759	-0.71910626
56	0xbf133b3a	-0.5751225
57	0x3ecccfed	0.40002385
58	0xbdce7285	-0.100804366
59	0x3de7760e	0.11301814
60	0xbe2c7268	-0.16840518
61	0xbecc257e	-0.39872354
62	0x3e222e34	0.15837938
63	0x3e6fbf9d	0.23412938
64	0xbe3afb95	-0.18260033
65	0x3d3735b6	0.044728957
66	0x3e8cc0b5	0.27490774
67	0x3daf6e52	0.08565964
68	0x3f377201	0.7165833
69	0xbea09db5	-0.3137032
70	0xbe011a17	-0.12607609
71	0xbe920506	-0.28519458
72	0x3e12c18a	0.14331642
73	0x3e1af5b3	0.1513279
74	0xbe3b97c1	-0.18319608
75	0xbe842ac2	-0.25813872
76	0xbe866200	-0.26246643
77	0x3f0e62b3	0.55619353
78	0x3df01910	0.1172353
79	0x3f2d2016	0.67627084
80	0x3dc08130	0.093996406
81	0x3f2d75db	0.6775796
82	0x3eeec99a	0.46638185
83	0xbeba5279	-0.36391047
84	0xbdc4b3b4	-0.09604588
85	0xbf1d7b9b	-0.6151673
86	0x3f15a5e5	0.5845626
87	0x3e8f80f4	0.2802807
88	0x3df559bf	0.11980008
89	0xbede551b	-0.43424305
90	0xbe21c818	-0.15798986
91	0x3d88557f	0.06656932
92	0x3d2843d7	0.041080322
93	0x3d9f86bd	0.07789371
94	0x3f491e1c	0.7856157
95	0x3df3a09a	0.11895867

fc3.bias f4 [3]
0	0x3e3263bd	0.1742086
1	0x3c69e0f3	0.0142748235
2	0xbc1cf9ad	-0.009581012
