framework/vis_embedding_scripts/embedding_networks/embedding_model_withoutNormConstraints_BasicKarel_dim1.pt (torch, 33175 bytes, 5 tensors)

fc1.weight f4 [64, 88]
0	0x3cbc35be	0.022974845
1	0x3e08b7c0	0.13351345
2	0xbd0ef52c	-0.034901783
3	0xbcd39080	-0.025825739
4	0xbd3ade5d	-0.04562222
5	0x3d92910c	0.07156572
6	0x3c27b033	0.01023488
7	0x3dbd7674	0.09251109
8	0xbd4242ee	-0.04742711
9	0x3c8227d0	0.015888125
10	0x3c994c1a	0.018713046
11	0xbd0dd56e	-0.03462737
12	0xbe0066d3	-0.12539224
13	0xbd73428b	-0.059389632
14	0xbd014c29	-0.031566773
15	0x3b82ffd0	0.0039977804
16	0x3d1f2d79	0.038861725
17	0x3da7aa1f	0.08186745
18	0xbdadbe8e	-0.08483611
19	0xbbf09045	-0.007341417
20	0x3e6ec483	0.23317151
21	0x3e1c9b16	0.15293536
22	0x3dba8ebe	0.09109257
23	0x3dcf8c3b	0.10134169
24	0x3dee092a	0.11622842
25	0x3e1a5ad8	0.15073717
26	0x3e367f79	0.17822064
27	0x3cea7fb3	0.028625345
28	0x3dcde487	0.10053354
29	0x3e08dd20	0.13365602
30	0x3dba5856	0.0909888
31	0x3e723ad5	0.23655255
32	0xbe45913f	-0.19293688
33	0xbddfb357	-0.10922878
34	0xbe5098f6	-0.2037085
35	0xbe50453a	-0.20338908
36	0xbdd0dbb4	-0.10198155
37	0xbc4c8d75	-0.012484898
38	0xbcac624f	-0.021042971
39	0xbd759eac	-0.059965774
40	0xbe0698a1	-0.13144161
41	0xbdf98e29	-0.12185318
42	0xbd672ef4	-0.056441262
43	0xbe6c36b9	-0.2306775
44	0xbdda919b	-0.10672303
45	0xbde5a2e6	-0.11212711
46	0xbcad09cf	-0.021122841
47	0xbd5c7ff8	-0.053832978
48	0x3c689d48	0.014197655
49	0xbd2d84a5	-0.042362828
50	0x3d7f6319	0.062350366
51	0x3d4a8c1c	0.049450025
52	0x3d20b019	0.03923044
53	0x3cf7ad35	0.030233959
54	0x3dd2c968	0.102923214
55	0xbc23e575	-0.010003437
56	0x3d629ff1	0.055328313
57	0xbdc6bb30	-0.09703672
58	0x3c396cef	0.011317476
59	0x3b60275b	0.0034203145
60	0x3d8e964b	0.0696226
61	0x3cf44ec2	0.02982271
62	0xbdb6fe2c	-0.08935198
63	0x3cd670a0	0.02617675
64	0x3dd572eb	0.104223095
65	0x3add0fc8	0.0016865665
66	0xbd11dc27	-0.035610344
67	0x3d405696	0.046957575
68	0x3dde537b	0.108557664
69	0x3e13863d	0.14406677
70	0xbe093c6e	-0.13401958
71	0xbd593db8	-0.053037375
72	0x3db2149e	0.08695339
73	0x3d9593ed	0.07303605
74	0x3da09c58	0.0784232
75	0x3dba5ef6	0.091001436
76	0x3d8fbe27	0.070186906
77	0xbd4fb4a7	-0.050709393
78	0x3cb25c0d	0.021772409
79	0xbd53e68e	-0.051733546
80	0xbd89d4c0	-0.06730032
81	0x3e0f13a0	0.1397233
82	0x3d989f07	0.07452207
83	0xbda4fc2a	-0.08055909
84	0x3bb126bc	0.005406229
85	0xbd394f5c	-0.0452417
86	0x3d65e721	0.056128625
87	0x3cb8bf4f	0.02255216
88	0x3d649f19	0.05581579
89	0xbd07f5f1	-0.033193532
90	0x3d3a3c05	0.045467395
91	0x3da09d7b	0.07842537
92	0x3d7312c2	0.05934406
93	0x3d1542a7	0.036440518
94	0xbd68ca6c	-0.05683367
95	0xbd6ab7aa	-0.057304062
96	0x3d69994a	0.057030953
97	0x3d279dbe	0.04092192
98	0xbd4fff18	-0.050780386
99	0xbbd017b2	-0.006350481
100	0x3ddb39ab	0.10704359
101	0x3d8da94e	0.06917058
102	0xbd698cb7	-0.05701896
103	0xbdb665f0	-0.08906162
104	0xbe3606db	-0.17776053
105	0xbd874e7f	-0.06606769
106	0xbe6c8016	-0.23095736
107	0xbdfda4d0	-0.12384951
108	0xbd8dea6f	-0.0692948
109	0xbd5b1400	-0.05348587
110	0xbe013de0	-0.1262126
111	0x3c9cb39b	0.019128611
112	0xbd332572	-0.043736883
113	0xbd7535a2	-0.0598656
114	0x3c7612ba	0.015019113
115	0xbe31b605	-0.17354591
116	0xbd1ac9b2	-0.037790008
117	0x3b84011b	0.004028452
118	0xbd1eecb7	-0.038799968
119	0xbdbc01a9	-0.09180004
120	0x3db64654	0.08900133
121	0x3da62dd5	0.081142105
122	0x3d9b6b81	0.07588864
123	0x3e25f8ea	0.16208234
124	0xbd918aab	-0.07106527
125	0x3b91e26b	0.00445204
126	0x3dc45bc9	0.09587819
127	0x3d2d77fe	0.04235076
128	0x3dc8cb82	0.09804441
129	0xbd70a7dd	-0.058753837
130	0x3d97c88a	0.07411297
131	0x3d9858d6	0.07438819
132	0xbc377681	-0.011197687
133	0x3df95727	0.12174826
134	0x3e46896a	0.19388357
135	0x3dc339a7	0.09532481
136	0x3d3034b5	0.043019015
137	0xbdbbc630	-0.09168661
138	0x3da9fabe	0.082997784
139	0x3da7b303	0.08188441
140	0x3dafa891	0.08577073
141	0x3d795f6c	0.060882017
142	0x3dfa3d7c	0.122187585
143	0xbc2d8143	-0.0105899
144	0xbe1968ce	-0.14981386
145	0xbe07105d	-0.13189836
146	0x3dc9d7ea	0.098556355
147	0xbd18b253	-0.03727944
148	0x3cbf09d6	0.02332012
149	0xbe0ca3b8	-0.13734329
150	0xbddbb2a6	-0.10727434
151	0xbd2af378	-0.041736096
152	0x3d0ec947	0.03485992
153	0x3be610bb	0.0070210374
154	0x3d310665	0.04321899
155	0xbda8fea6	-0.08251695
156	0x3dcf5109	0.10122878
157	0xbddd9f54	-0.10821405
158	0xbd52498a	-0.051339664
159	0xbc2a3fe5	-0.01039121
160	0xbc8efe46	-0.017455231
161	0xbc896d40	-0.016775727
162	0xbdd994ba	-0.106240705
163	0xbd990282	-0.074711815
164	0x3c15489b	0.009111549
165	0xbd260ff6	-0.040542565
166	0xbd9debd5	-0.07710997
167	0x3d640d4f	0.055676755
168	0xbdff2f10	-0.12460148
169	0x3ca90dec	0.020636521
170	0x3de331ae	0.1109346
171	0xbdb50fc5	-0.088408984
172	0x3ddfc433	0.10926094
173	0x3d354407	0.04425433
174	0xbdd2c1d9	-0.1029088
175	0x3d0b9261	0.034075145
176	0xbbe03761	-0.006842539
177	0xbd157c1b	-0.03649531
178	0x3da1c472	0.07898797
179	0xbd8032de	-0.06259702
180	0x3c77ffaa	0.015136639
181	0xbc393278	-0.011303537
182	0x3dc79e86	0.09747033
183	0x3ccb1ce1	0.024794044
184	0x3d4662bb	0.048434
185	0x3d4df762	0.05028475
186	0xbd4a6b81	-0.04941893
187	0x3b60ae94	0.0034283744
188	0xbcea8421	-0.028627457
189	0x3d43b8ab	0.047783535
190	0x3de390db	0.11111613
191	0x3da833e5	0.08213023
192	0xbdfb1178	-0.12259191
193	0xbe004bbc	-0.1252889
194	0xbe113dd2	-0.14183739
195	0xbe726e6c	-0.23674935
196	0xbe2a5b1b	-0.16636316
197	0xbcbfe935	-0.023426631
198	0xbe1ccda7	-0.15312825
199	0xbdcb0d30	-0.09914625
200	0xbe0951fe	-0.13410184
201	0xbd0ceb2d	-0.03440397
202	0xbe29810b	-0.16553132
203	0xbde96d65	-0.113978185
204	0xbdfd1971	-0.12358368
205	0xbbda962b	-0.0066707334
206	0xbe07a221	-0.13245441
207	0xbc33e18e	-0.010979069
208	0x3e1dbce5	0.15404089
209	0x3ddfb446	0.10923056
210	0x3e1b5f19	0.15172996
211	0xbc6833c7	-0.014172501
212	0x3e48706e	0.19574139
213	0x3dbc4909	0.09193618
214	0x3dc00470	0.093758464
215	0x3e2c7146	0.16840085
216	0xbd30fcb5	-0.04320975
217	0x3db9282e	0.09040867
218	0x3e66510b	0.22491853
219	0x3d2b23b2	0.04178209
220	0x3de39119	0.111116596
221	0x3e82acbb	0.25522408
222	0x3e30a302	0.17249683
223	0x3dda9afe	0.10674094
224	0xbde6561a	-0.11246891
225	0x3d01f0bb	0.03172372
226	0xbda965b2	-0.0827135
227	0xbd4bdc1e	-0.049770467
228	0x3c812747	0.0157658
229	0xbcddd2fd	-0.027078146
230	0xbc148fe6	-0.009067511
231	0x3dd48e49	0.10378701
232	0x3d00f4fa	0.031483628
233	0x3d809751	0.06278861
234	0x3e0c5bd3	0.13706903
235	0xbca52141	-0.020157458
236	0xbd36196d	-0.04445784
237	0xbd5b031e	-0.05346977
238	0xb9061f96	-0.00012791003
239	0x3da2674b	0.07929858
240	0x3cfe8593	0.031069553
241	0x3da71fd7	0.0816037
242	0xbd97b9ee	-0.0740851
243	0x3c62af32	0.013835715
244	0x3d6a089b	0.057137113
245	0xbdfa09f8	-0.12208933
246	0x3d433775	0.04766031
247	0xbdbc4bb4	-0.09194127
248	0x3c2a6346	0.010399645
249	0x3a8fdc46	0.0010975681
250	0x3d83bbe3	0.06432321
251	0x3c8ad88b	0.016948959
252	0x3d80027c	0.06250474
253	0xbcc2a08b	-0.023758193
254	0xbcc31c16	-0.023817103
255	0xbd1fc264	-0.039003745

fc1.bias f4 [64]
0	0x3e07bc5c	0.13255447
1	0xbb7f7cbd	-0.0038984262
2	0x3cf3a83d	0.029743308
3	0xbd38b4a4	-0.045094147
4	0xbd492a57	-0.049112644
5	0x3c5a3cdc	0.013320174
6	0x3d0d8710	0.034552634
7	0xbd4fc92e	-0.05072897
8	0x3d2c9a4d	0.04213934
9	0xbcbdafb8	-0.023155078
10	0x3c284fb4	0.010272909
11	0x3c8279c8	0.01592721
12	0xbda48517	-0.080331974
13	0x3e09284b	0.13394277
14	0x3d7019d2	0.058618374
15	0x3dbf9261	0.093540914
16	0xbd9835d3	-0.07432141
17	0xbc888829	-0.016666489
18	0x3d4b951d	0.049702752
19	0xbbc5bb53	-0.0060342937
20	0x3cab1e48	0.020888463
21	0x3da5dc55	0.080986656
22	0x3cef5d93	0.029219424
23	0x3cd63f18	0.026153132
24	0x3d3e3e3a	0.046446063
25	0x3dc21a73	0.09477701
26	0xbacf6fa9	-0.0015826124
27	0xbd918477	-0.07105344
28	0xbc29b6b2	-0.010358499
29	0x3d8f36f5	0.06992904
30	0x3db54d3f	0.08852624
31	0x3dd55d4d	0.10418186
32	0xbc931517	-0.017954392
33	0xbd57127f	-0.052507874
34	0x3db58425	0.08863095
35	0x3ae70175	0.0017624336
36	0xbd896089	-0.06707866
37	0x3d8e28fd	0.06941412
38	0x3c5a9b6d	0.01334272
39	0x3c253ead	0.010085744
40	0x3d9cc234	0.07654229
41	0x3dc9277f	0.098219864
42	0xbd2bfdf6	-0.041990243
43	0xbd0abe6f	-0.033873018
44	0xbd960be6	-0.07326488
45	0xbda1a972	-0.07893647
46	0xbcfdb53a	-0.030970205
47	0x3dfb8c4b	0.12282618
48	0xbdba089f	-0.090836756
49	0x3d159982	0.03652335
50	0x3db7df50	0.0897814
51	0x3d46613a	0.048432566
52	0x3d66179c	0.05617486
53	0x3d2d83ce	0.042362027
54	0x3d9a25a5	0.075267114
55	0xbd3a7bb6	-0.045528136
56	0x3c573eb8	0.013137512
57	0x3dd86302	0.10565759
58	0x3da494f0	0.0803622
59	0xbca287e5	-0.01984019
60	0xbd6b6579	-0.05746982
61	0x3dc3238d	0.09528265
62	0x3bc4127a	0.005983648
63	0x3dc5b0a6	0.09652834

fc2.weight f4 [32, 64]
0	0x3d002b5b	0.031291347
1	0x3d96418b	0.0733672
2	0x3e046350	0.1292851
3	0x3e2bac0e	0.16764852
4	0x3d70ff03	0.058836948
5	0xbe0ba700	-0.13637924
6	0x3cd483e1	0.025941791
7	0x3dba7cb9	0.0910582
8	0xbdb65002	-0.08901979
9	0xbc843279	-0.016137348
10	0xbd09f559	-0.033681247
11	0xbdf6988d	-0.120408155
12	0xbdd78fe1	-0.105254896
13	0xbdbc2c2e	-0.09188114
14	0x3c4cc9bc	0.012499269
15	0x3e1f3c2e	0.155503
16	0x3dd7836d	0.10523114
17	0x3e3b2b71	0.1827829
18	0xbe20bc7c	-0.15696901
19	0xbdc87d08	-0.09789473
20	0xbe03efbd	-0.12884422
21	0x3e033e76	0.12816796
22	0xbdbb3d04	-0.09142497
23	0x3e42035c	0.18946594
24	0xbd08b315	-0.03337391
25	0xbe36bc5d	-0.17845292
26	0xbdb4d69e	-0.088299975
27	0xbdf57411	-0.119850285
28	0x3d348272	0.044069715
29	0x3e4a3220	0.19745684
30	0x3d954925	0.07289342
31	0xbd7079f2	-0.058710046
32	0x3e179068	0.1480118
33	0x3e0afb06	0.1357232
34	0xbc8cd131	-0.017189594
35	0xbd5ec42c	-0.054386303
36	0x3d6deb53	0.05808575
37	0xbdec06a7	-0.11524706
38	0x3d3d2288	0.04617551
39	0xbbe55d3c	-0.00699964
40	0x3d96c23c	0.07361266
41	0x3d8b35ea	0.06797393
42	0x3dd721c4	0.10504487
43	0xbd8af1ca	-0.06784399
44	0x3dec4050	0.11535704
45	0x3e34d101	0.17657854
46	0xbe02827e	-0.12745091
47	0xbd11ec09	-0.03562549
48	0xbde30f82	-0.11086942
49	0x3d9732e9	0.07382757
50	0x3e5e4b35	0.21708377
51	0xbdf72d78	-0.12069219
52	0x3e48899f	0.19583748
53	0x3c6d0561	0.014466614
54	0x3bb309aa	0.0054637985
55	0x3e58bfb1	0.21166874
56	0xbd3c98ba	-0.04604409
57	0x3d9bdbf9	0.07610316
58	0x3e6a6a9a	0.22892228
59	0xbd41dc64	-0.04732932
60	0xbe22b211	-0.1588824
61	0xbd34193f	-0.04396939
62	0x3e1f946a	0.15583959
63	0xbd99b0bf	-0.07504415
64	0xbdfa3973	-0.12217989
65	0x3deb888f	0.11500656
66	0xbd90c5df	-0.07068991
67	0x3dd96539	0.1061501
68	0x3e596fa0	0.21233988
69	0xbc98aba2	-0.018636528
70	0x3e40cadb	0.18827383
71	0xbd0694a6	-0.032856606
72	0xbdb60257	-0.08887165
73	0x3d826812	0.06367506
74	0x3cb98e7c	0.02265095
75	0x3de70e8d	0.11282072
76	0xbdf9d4a9	-0.12198765
77	0x3d939e44	0.07207921
78	0xbe000c5d	-0.12504716
79	0xbcb0862c	-0.021548353
80	0x3cba80d4	0.022766508
81	0xbdaf1595	-0.08549038
82	0x3b83e4f0	0.004025094
83	0xbca96fb5	-0.020683149
84	0xbaf79ea8	-0.0018891888
85	0xbdcf00eb	-0.10107597
86	0x3c87a923	0.016560143
87	0x3df5d781	0.12003995
88	0xbb4c8f4a	-0.0031213337
89	0x3cc03cde	0.023466524
90	0x3d483093	0.04887445
91	0xbdc99499	-0.09842796
92	0x3d82a913	0.063799046
93	0x3c9cddee	0.019148793
94	0x3dd9bb93	0.1063148
95	0x3db5f033	0.08883705
96	0x3b81162a	0.0039394097
97	0x3e09172f	0.1338775
98	0xbd99430a	-0.0748349
99	0x3d518065	0.051147837
100	0x3e14d29d	0.14533468
101	0xbd410eb5	-0.047133166
102	0x3e1e1769	0.15438618
103	0xbd0799b3	-0.033105563
104	0x3c67e47a	0.014153594
105	0xbc29800e	-0.010345472
106	0x3d602358	0.054721206
107	0xbdfb3864	-0.12266615
108	0xbd1ecbf7	-0.038768735
109	0x3d3eb4ff	0.04655933
110	0xbdf749a7	-0.12074595
111	0x3d0fe9b8	0.035135
112	0xbe25b8b0	-0.16183734
113	0x3e165788	0.14681828
114	0x3c13f914	0.009031553
115	0xbb72cd9c	-0.0037048822
116	0x3d40ea21	0.047098283
117	0x3d2d5e8b	0.04232649
118	0x3d25944b	0.040424626
119	0xbd932ef2	-0.071866885
120	0xbe01f286	-0.12690172
121	0x3de9c113	0.11413779
122	0x3dd1fc57	0.10253208
123	0x3e007d15	0.12547715
124	0x3ddd963f	0.10819673
125	0x3cfe7adc	0.031064443
126	0x3c60068f	0.013673439
127	0xbd85fd3f	-0.065424435
128	0x3935ff81	0.00017356688
129	0x3d72c413	0.059269022
130	0x3d74224d	0.059603024
131	0xbd1af43b	-0.037830573
132	0xbdc72749	-0.0972429
133	0x3e1cab7d	0.15299793
134	0xbd6457f6	-0.05574795
135	0x3df07730	0.11741483
136	0x3dcf8ed3	0.101346634
137	0xbd0c35af	-0.034230884
138	0xbd03538d	-0.032062102
139	0x3dfcec21	0.123497255
140	0x3d16e198	0.036836237
141	0x3dcab4ef	0.098977916
142	0x3df5a13a	0.11993642
143	0xbdc542c9	-0.09631879
144	0xbd9ccb02	-0.07655908
145	0xbd9a1de4	-0.075252324
146	0x3d10d77e	0.03536176
147	0x3e6aa6a0	0.22915125
148	0x3e152304	0.14564139
149	0x3d7b7c4e	0.061397843
150	0x3e71a965	0.23599775
151	0x3ccd0341	0.025025966
152	0x3e30c4f8	0.17262638
153	0x3e14a0a4	0.14514405
154	0x3d76e3db	0.060275894
155	0x3dbad499	0.09122581
156	0xbdeb6221	-0.11493326
157	0x3c52e82c	0.012872737
158	0x3d971d55	0.073786415
159	0x3e05add0	0.13054585
160	0xbdd83e4d	-0.10558758
161	0xbcb2570d	-0.021770025
162	0x3e55e099	0.20886458
163	0x3e082b63	0.132978
164	0xbd114a87	-0.035471465
165	0x3ddbee65	0.107388295
166	0xb8a4852e	-7.844936e-05
167	0x3e834e39	0.25645617
168	0x3d55cf35	0.05219956
169	0x3e3f6bb4	0.18693429
170	0xbdc60c33	-0.096702956
171	0x3b308615	0.0026935388
172	0xbdf1c311	-0.11804784
173	0xbe20a3a0	-0.15687418
174	0x3e4c9c2b	0.19981448
175	0xbcf2435c	-0.029573135
176	0x3e0dc585	0.13844879
177	0xbc098304	-0.008393053
178	0xbe4c8b9f	-0.19975136
179	0x3de32c2d	0.1109241
180	0xbce2d651	-0.027690085
181	0x3d538525	0.05164065
182	0xbe19ebd5	-0.15031369
183	0xbbb856f4	-0.0056256
184	0x3d90915c	0.07058975
185	0x396b09c5	0.00022414986
186	0xbdfa6d1a	-0.12227841
187	0xbd9a3d78	-0.075312555
188	0x3d18d43c	0.037311777
189	0x3c8c338f	0.017114429
190	0x3ca269b9	0.019825803
191	0x3da16cd5	0.07882086
192	0x3c3e524d	0.011616302
193	0xbda9d9cb	-0.08293494
194	0xbdd67b25	-0.10472707
195	0xbd71b957	-0.059014644
196	0xbd93ad6f	-0.07210814
197	0x3e5d086d	0.21585245
198	0xbe459c0a	-0.19297805
199	0x3d77eb8b	0.060527366
200	0x3e478725	0.19485147
201	0xbde66c21	-0.11251093
202	0xbc58fd95	-0.013244052
203	0x3dadc775	0.08485309
204	0x3d8de103	0.06927683
205	0x3da896d9	0.08231897
206	0x3e073938	0.13205421
207	0xbe5da3fa	-0.21644583
208	0xbe0cc79a	-0.13748017
209	0xbc66aee7	-0.014079786
210	0x3c8c2052	0.017105255
211	0x3dbc52bd	0.091954686
212	0x3e013fb0	0.12621951
213	0xbc644c5d	-0.013934222
214	0x3ccc428b	0.024934074
215	0xbe1856f3	-0.14876918
216	0xbd2b3bda	-0.041805126
217	0xbc0606f1	-0.008180366
218	0x3c97105a	0.018440414
219	0x3bd58ff2	0.0065174038
220	0xbe583300	-0.21113205
221	0xbdb575af	-0.08860337
222	0x3e49bbc2	0.1970053
223	0x3e5a49fa	0.21317282
224	0x3b1ed4ba	0.0024235682
225	0xbd87d14f	-0.06631719
226	0x3e5ff226	0.21869716
227	0x3cba3447	0.022730006
228	0xbe4254a6	-0.18977603
229	0x3dd6c409	0.104866095
230	0x3d74c7e5	0.059760947
231	0x3e2c6c57	0.16838203
232	0x3d1e31b9	0.038621638
233	0x3d69f3c5	0.057117242
234	0x3db1ed98	0.086878955
235	0x3e0ad150	0.13556409
236	0xbdc10b95	-0.09426037
237	0xbd160ca2	-0.03663314
238	0x3e026741	0.127347
239	0x3d097dfb	0.03356741
240	0x3db4141e	0.087928995
241	0x3dbb83e8	0.091560185
242	0xbda99748	-0.08280808
243	0x3e2afe77	0.16698633
244	0x3cae76b2	0.021296833
245	0x3e01c310	0.12672067
246	0x3d50db1a	0.0509902
247	0xbde660f0	-0.11248958
248	0x3da95da6	0.08269815
249	0x3d2efb20	0.04271996
250	0xbd6b6557	-0.057469692
251	0xbe0c6ff4	-0.13714582
252	0x3e29e6ca	0.16591945
253	0xbc9f6bbf	-0.019460557
254	0x3d4acf48	0.049514085
255	0x3d372820	0.044716

fc2.bias f4 [32]
0	0x3deb42ff	0.11487388
1	0xbd3d1780	-0.04616499
2	0x3b334166	0.0027352213
3	0x3de41168	0.111361325
4	0x3d9871fd	0.074436165
5	0xbd04093e	-0.032235377
6	0x3e068e8b	0.13140313
7	0xbd728064	-0.059204474
8	0x3d866d8e	0.06563865
9	0x3d6f456e	0.058415823
10	0x3e2bd656	0.16780981
11	0x3dafae49	0.08578164
12	0x3e076cfe	0.13225171
13	0x3c33d27a	0.0109754745
14	0x3e02170e	0.12704107
15	0x3d907d3d	0.07055137
16	0x3d9a3407	0.07529455
17	0x3d64e37d	0.055881012
18	0xbe06bffe	-0.13159177
19	0x3e1df83c	0.15426725
20	0xbd519661	-0.051168803
21	0xbe14b605	-0.1452256
22	0x3daa5589	0.08317096
23	0x3c231789	0.009954342
24	0xbd114d18	-0.035473913
25	0x3e365999	0.17807616
26	0x3d6fa8f1	0.058510724
27	0xbdc0290e	-0.093828306
28	0x3e04938e	0.12946913
29	0x3ddac756	0.106825516
30	0xbdc41e0e	-0.09576045
31	0x3d9746d9	0.0738656

fc3.weight f4 [1, 32]
0	0xbe9e8038	-0.30957198
1	0xbe478e58	-0.19487894
2	0x3e111399	0.14167632
3	0x3e1c4dfc	0.15264124
4	0xbe7ee9a2	-0.24893811
5	0xbe418af4	-0.18900663
6	0xbe97380a	-0.29534942
7	0xbda0a9b3	-0.078448676
8	0xbe329344	-0.1743899
9	0x3e13ea1f	0.14444779
10	0x3e6c1248	0.23053849
11	0x3e541b7c	0.2071361
12	0x3e92da87	0.28682348
13	0x3dfcb23f	0.12338685
14	0xbe949498	-0.29019618
15	0xbe48b3fe	-0.19599912
16	0xbe9bcf08	-0.3043139
17	0xbddec1eb	-0.10876831
18	0x3dc89cad	0.097955085
19	0x3dfdfdd0	0.124019265
20	0x3e54f959	0.20798244
21	0x3e08c058	0.13354623
22	0x3e59e540	0.21278858
23	0xbe3ba6b3	-0.1832531
24	0x3e765d49	0.24059023
25	0x3e7a1710	0.2442286
26	0xbeb1f571	-0.3475757
27	0xba38b6ea	-0.0007046299
28	0x3e3897be	0.18026635
29	0x3e3a9505	0.18220909
30	0x3e69eb70	0.22843719
31	0xbe991ff1	-0.29907182
