framework/vis_embedding_scripts/embedding_networks/embedding_model_withNormConstraints_CartPoleVar_dim3.pt (torch, 7575 bytes, 6 tensors)

fc1.weight f4 [32, 7]
0	0xbfed89df	-1.85577
1	0x3d3a21b9	0.045442317
2	0x400c6541	2.19368
3	0x3e559230	0.20856547
4	0xbe0e1ac1	-0.13877393
5	0x3e90ddc1	0.28294185
6	0xbbf56396	-0.007488678
7	0x3fbddf68	1.4833803
8	0xbe8b01b4	-0.27149737
9	0xc00f5cbd	-2.2400353
10	0x3f3aaecd	0.72922975
11	0xbd6447df	-0.055732604
12	0xbf42a6db	-0.7603585
13	0xbe8029d3	-0.2503191
14	0xbfde94db	-1.7389177
15	0xbea9f941	-0.33197978
16	0x40300966	2.7505736
17	0x3fcb1585	1.5865942
18	0xbe541304	-0.20710379
19	0xbde28375	-0.1106023
20	0x3e0c93f5	0.13728316
21	0xbf3aacf4	-0.72920156
22	0x3f1df5ad	0.61702996
23	0x4048e883	3.1391914
24	0xbdc9e6fe	-0.098585114
25	0x3d898009	0.06713874
26	0x3f1bef72	0.6091224
27	0xbeb3854f	-0.35062644
28	0x3f285831	0.6575957
29	0xbe7063f6	-0.23475632
30	0xbf8c73b6	-1.0972812
31	0x400cad4a	2.1980767
32	0xbe63b66a	-0.22237554
33	0xbec26c46	-0.3797323
34	0xbe87330a	-0.26406127
35	0xbe4681ac	-0.19385403
36	0x3e215af9	0.1575736
37	0xbeca538d	-0.3951687
38	0x3ef40ae3	0.47664556
39	0x3e28f4f7	0.16499697
40	0xbe8b99ea	-0.27265865
41	0xbe466d41	-0.19377615
42	0xc0052811	-2.0805705
43	0x3d4ba9f0	0.049722612
44	0x4025b691	2.589268
45	0x3edb8c6a	0.42880565
46	0x3da87818	0.08226031
47	0x3e724211	0.23658015
48	0xbe2ba5fc	-0.16762537
49	0x3e919d41	0.28440288
50	0xbfcc97e9	-1.5983859
51	0x3ff85157	1.9399823
52	0x3f1fe3c7	0.62456936
53	0x3d950aa8	0.07277423
54	0x3efba0eb	0.49146208
55	0xbe63e332	-0.22254637
56	0xbfd9150c	-1.6959548
57	0xbd9668fb	-0.07344242
58	0x4016f5d7	2.3587549
59	0xbd33d282	-0.043901928
60	0x3dc3261f	0.095287554
61	0x3e8258fa	0.2545851
62	0xbe6542f3	-0.2238882
63	0xbe457530	-0.19282985
64	0xbec26844	-0.37970173
65	0x3f5f324f	0.8718614
66	0xbfb3a42c	-1.4034476
67	0xbca8571a	-0.020549346
68	0x3f0641ed	0.52444345
69	0x3eb9d08d	0.36291924
70	0xc005df5a	-2.0917573
71	0xbc35c6f0	-0.011094794
72	0x4043393b	3.050368
73	0x3f1a9955	0.60390216
74	0x3e4aee8e	0.19817564
75	0x3eedc74d	0.46441117
76	0x3d9a0d2b	0.07522043
77	0xc0076158	-2.1153164
78	0x3f09a163	0.5376188
79	0x3fe66f2d	1.8002678
80	0xbf35f1e4	-0.7107222
81	0x3e38b284	0.18036848
82	0x3e1b2a04	0.15152746
83	0xbec10a18	-0.37703013
84	0x3fc7eaff	1.561859
85	0xbe42fa7e	-0.19040868
86	0xc01858b4	-2.380414
87	0xbe65afbf	-0.22430323
88	0x3e0fa3fb	0.14027397
89	0xbf018a56	-0.5060171
90	0x3e0de247	0.13855849
91	0xbfb9d637	-1.4518498
92	0xbc493210	-0.012280002
93	0x4032a29d	2.7911751
94	0x3e8515e3	0.2599326
95	0xbe588906	-0.2114602
96	0x3e9ac2eb	0.30226836
97	0x3da203a0	0.07910848
98	0x3d6ec97e	0.058297627
99	0xbd29ae12	-0.041425772
100	0xbe97e49f	-0.29666612
101	0x400cacfd	2.1980584
102	0xbe0af58b	-0.1357023
103	0xbee3063a	-0.44340688
104	0xbeb8583e	-0.36004823
105	0x3fc8daec	1.569181
106	0xbec1ecac	-0.3787588
107	0xc032522b	-2.7862651
108	0xbda5754c	-0.08079013
109	0x3d9543b0	0.07288301
110	0xbec78b2c	-0.38973367
111	0x3e65a884	0.22427565
112	0xbff1816f	-1.8867625
113	0x3f05578e	0.5208672
114	0x40539716	3.3060966
115	0x3df5372e	0.11973415
116	0xbd58c49a	-0.05292187
117	0x3d81750d	0.06321154
118	0x3d61e02b	0.055145424
119	0x3fd430ea	1.6577427
120	0xbd7f61a2	-0.06234897
121	0xc0249697	-2.5716913
122	0xbe385ce6	-0.18004188
123	0x3df6a6c8	0.1204353
124	0xbf04f884	-0.51941705
125	0xbe65660a	-0.22402206
126	0xc0006aac	-2.0065107
127	0xbe9c519a	-0.30531007
128	0x401c0c75	2.4382603
129	0x3e952ade	0.29134268
130	0xbdb8f063	-0.09030225
131	0x3e3bf443	0.18354897
132	0xbe7c23f5	-0.24623092
133	0xbfc3aa4d	-1.5286347
134	0x3e84bb1d	0.25924006
135	0x401a5b62	2.4118276
136	0xbecfbbde	-0.4057302
137	0xbd1c0f9d	-0.038100827
138	0x3ea37eec	0.3193277
139	0x3e7617af	0.24032472
140	0x3fddbeb6	1.7323825
141	0xbee13acb	-0.43990168
142	0xbffb0b09	-1.9612743
143	0x3f62f164	0.8864958
144	0xbe82c7b2	-0.2554298
145	0xbef90710	-0.486382
146	0x3e83c46d	0.25735798
147	0x3ef8dd25	0.4860622
148	0x3ee30f4e	0.44347614
149	0xbfa118ed	-1.2585732
150	0x3f9af148	1.2104883
151	0xbe957e33	-0.29197845
152	0xbefa0162	-0.4882918
153	0x3e5440ae	0.20727798
154	0xbf79686c	-0.9742496
155	0xbfde0eb2	-1.7348235
156	0x400bc6d4	2.1840105
157	0xbdd1e2d9	-0.10248346
158	0xbd134769	-0.035956774
159	0xbd790802	-0.060798652
160	0xbd951913	-0.07280173
161	0xbd97fbb6	-0.07421057
162	0xbeada738	-0.3391664
163	0xbea71732	-0.32634884
164	0xbd7240a5	-0.05914368
165	0x3ba02ab8	0.004887905
166	0xbe2fd210	-0.17169976
167	0x3e11cbc7	0.14237891
168	0xc01e7e97	-2.4764764
169	0x3ec08d6f	0.37607905
170	0x40506ed0	3.2567635
171	0xbd89ccb5	-0.06728498
172	0x3e80a450	0.2512536
173	0x3e1e7aa0	0.15476465
174	0xbeaea46b	-0.34109816
175	0xbf508486	-0.81452215
176	0xbf98bb7c	-1.1932216
177	0x400da1d7	2.213003
178	0x3f445923	0.7669851
179	0xbdd4fd39	-0.10399861
180	0x3e2cffe8	0.16894495
181	0xbda210f8	-0.07913393
182	0xbed1d5b0	-0.40983343
183	0x3d8d05bc	0.06885859
184	0x3e83f585	0.25773254
185	0x401774ee	2.3665118
186	0xbe2549be	-0.16141412
187	0xbed82e6f	-0.42222926
188	0xbe9f7974	-0.3114735
189	0x3fdd5f6b	1.7294744
190	0x3e213807	0.15744029
191	0xc007db93	-2.1227767
192	0xbec1511c	-0.37757194
193	0x3da1c37b	0.07898613
194	0xbf0c0369	-0.54692703
195	0xbe550e96	-0.20806345
196	0xbf861b2a	-1.047704
197	0xbe862933	-0.26203308
198	0x3fe8911c	1.8169284
199	0xbf355332	-0.7083007
200	0xbc360aec	-0.011111002
201	0x3f19ac5d	0.6002863
202	0xbe9248b4	-0.28571093
203	0x3f1568b9	0.5836292
204	0x3db077d2	0.08616604
205	0xbfb885d3	-1.441584
206	0xbe80228f	-0.25026366
207	0x3e9ae859	0.30255392
208	0xbe98a8a6	-0.2981617
209	0x3d4408fd	0.047860134
210	0xbb3863fb	-0.0028135765
211	0xbd990504	-0.0747166
212	0x3d423d62	0.04742182
213	0xbdb0c14b	-0.08630618
214	0xbb2e0bf7	-0.0026557425
215	0x3d45883e	0.048225634
216	0xbe975ee1	-0.29564574
217	0xc012eb9f	-2.2956312
218	0x3f479c12	0.7797252
219	0x40213706	2.5189834
220	0x3e768f8a	0.24078193
221	0x3e8e00dc	0.2773503
222	0x3e643425	0.22285517
223	0x3c2f549a	0.010701323

fc1.bias f4 [32]
0	0xbf3b57be	-0.7318076
1	0x3e8c16a7	0.27361032
2	0xbf2325ff	-0.6372985
3	0xbdd1ec70	-0.10250175
4	0xbeaa5756	-0.33269757
5	0xbee9a0d6	-0.4563052
6	0xbea7c2a5	-0.3276569
7	0x3f5950ff	0.84889215
8	0xbe008102	-0.12549213
9	0x3f49ca0a	0.7882391
10	0x3d67423a	0.056459643
11	0xbf0b793a	-0.5448185
12	0x3ddd8248	0.10815865
13	0xbf1b673e	-0.6070441
14	0xbf1b4cb9	-0.60663944
15	0x3df3237c	0.118720025
16	0xbe8513de	-0.2599172
17	0x3e82fc2c	0.25583017
18	0xbf230bf5	-0.6369012
19	0xbe37670b	-0.17910402
20	0x3ed69683	0.41911706
21	0xbf398f29	-0.7248407
22	0x3e502e41	0.20330144
23	0xbea00633	-0.3125473
24	0xbe96af3e	-0.29430574
25	0xbe9378d4	-0.28803122
26	0xbf5a3b35	-0.8524659
27	0x3d382658	0.044958442
28	0x3f1fbbe3	0.6239607
29	0xbee062e5	-0.4382545
30	0xbe65c7e0	-0.22439528
31	0xbf05227c	-0.52005744

fc2.weight f4 [32, 32]
0	0xbe336ac1	-0.17521192
1	0xbfa63e42	-1.298775
2	0xbdaddfc1	-0.08489943
3	0xbebf7f9d	-0.3740205
4	0xbdd0922c	-0.1018413
5	0x3de3847b	0.11109253
6	0x3d9c7f4f	0.0764147
7	0xbd97259a	-0.07380219
8	0x3cc99223	0.024605816
9	0xbe33b25d	-0.17548509
10	0xbdbdce89	-0.09267909
11	0x3d10391d	0.035210717
12	0x3e9767b9	0.29571322
13	0x3d44def8	0.048064202
14	0xbdab4c03	-0.083641075
15	0x3e2b7e14	0.16747314
16	0xbe2b25ef	-0.1671369
17	0x3e1c3799	0.15255584
18	0xbdcb2b76	-0.09920399
19	0xbed742ea	-0.4204324
20	0x3e1ebb4a	0.15501133
21	0xbdeb1caa	-0.114800766
22	0xbf5be62a	-0.8589808
23	0x3d4f7188	0.05064538
24	0xbcd441d6	-0.0259103
25	0xbdf39bf5	-0.11894981
26	0xbe125265	-0.14289244
27	0x3ec8578a	0.39129287
28	0xbe725d3f	-0.23668383
29	0x3e3a754f	0.18208812
30	0xbd72bd79	-0.059262726
31	0x3d42e28f	0.047579344
32	0xbd25944a	-0.040424623
33	0xbc00cd5c	-0.0078614615
34	0xbddc7f5f	-0.107664816
35	0x3d74e235	0.05978604
36	0x3d64edb7	0.055890765
37	0xbb6efca5	-0.0036466506
38	0xbd22d8b8	-0.03975746
39	0xbddf2be2	-0.10897042
40	0x3dfa5daf	0.122249
41	0xbe06c152	-0.13159683
42	0x3d945093	0.07241931
43	0xbd73793b	-0.059441786
44	0xbdaeac0d	-0.0852891
45	0x3d0213b1	0.03175706
46	0xbdbc1042	-0.091827884
47	0x3d26d4b8	0.04073021
48	0x3d0e31e7	0.03471556
49	0xbe0667ab	-0.13125484
50	0x3cf11d9b	0.029433062
51	0x3d9a33ed	0.07529435
52	0x3d8f4e5e	0.06997369
53	0xbcb64ab4	-0.022252418
54	0xbe1465bd	-0.14491935
55	0xbcdf3d2a	-0.027250845
56	0x3d7b7a45	0.061395902
57	0xbd841981	-0.06450177
58	0x3d896c4c	0.06710109
59	0x3df11aad	0.11772666
60	0xbdbd0a00	-0.09230423
61	0x3ae480d2	0.0017433411
62	0x3d95b3df	0.07309698
63	0x3c6301a9	0.013855376
64	0x3e8f6084	0.28003323
65	0xbeaa35e7	-0.3324425
66	0x3dc566fc	0.09638783
67	0x3d007b28	0.03136745
68	0x3e54f91c	0.20798153
69	0x3e69efdf	0.2284541
70	0x3e2a47ad	0.16628905
71	0x3da7dac1	0.08196021
72	0x3e2ada71	0.16684891
73	0xbe9ef5e6	-0.3104698
74	0xbdc3393f	-0.09532403
75	0xbc01f07c	-0.007930871
76	0x3e4b21a9	0.19837059
77	0x3e91605e	0.28393835
78	0x3e0d652c	0.13808125
79	0x3dcaabaf	0.09896027
80	0x3f0b968c	0.5452659
81	0x3e44eb5b	0.19230406
82	0x3f0a603b	0.54053086
83	0x3f018334	0.50590825
84	0xbd4bae28	-0.049726635
85	0x3c2387a9	0.009981074
86	0x3e6d7b21	0.23191501
87	0x3dcae10c	0.099062055
88	0xbd056264	-0.032564536
89	0x3e8e9e51	0.2785516
90	0x3f1bfa29	0.6092859
91	0x3d56a2de	0.052401416
92	0xbe55b789	-0.20870794
93	0x3e1301b0	0.14356112
94	0xbd7dd596	-0.06197127
95	0x3e74c8a1	0.23904659
96	0xbe32bf26	-0.1745573
97	0xbf6bf6fd	-0.9217375
98	0xbddb4f87	-0.10708528
99	0x3edb638f	0.42849395
100	0xbe963ae9	-0.2934182
101	0x3d1562ed	0.036471296
102	0xbdcb3c35	-0.09923593
103	0x3eb79668	0.35856938
104	0xbdc190b4	-0.09451428
105	0x3e1f7e53	0.15575533
106	0xbdd7a120	-0.10528779
107	0x3defaa30	0.117023826
108	0xbd2635f7	-0.04057881
109	0x3d8c0a47	0.06837898
110	0x3d6a9f2b	0.0572807
111	0xbecac8b6	-0.39606255
112	0x3eb10c06	0.34579486
113	0xbe0a7055	-0.13519414
114	0xbe608b8f	-0.21928237
115	0x3e6e0fbd	0.23248191
116	0xbe94116c	-0.28919542
117	0xbea2d2a3	-0.31801328
118	0xbe9d74f0	-0.3075328
119	0xbdcd8bbd	-0.100364186
120	0x3e1e2c2c	0.15446538
121	0x3d244215	0.040102083
122	0xc01cf037	-2.4521616
123	0xbe29e0d4	-0.16589671
124	0x3f1da275	0.61576015
125	0xbdcf1eea	-0.10113318
126	0x3d9f4c3a	0.07778211
127	0x3e0fb1a2	0.14032605
128	0xbd5c7c80	-0.05382967
129	0x3df5455a	0.119761184
130	0xbbcbfa25	-0.006224888
131	0xbec3cb3b	-0.3824099
132	0xbe04497f	-0.12918662
133	0x3da2f0b8	0.0795607
134	0xbd99e5fc	-0.07514569
135	0x3e2cbeb7	0.16869627
136	0xbe60e115	-0.21960862
137	0x3e495979	0.19663037
138	0xbe677422	-0.22602895
139	0x3c367737	0.0111368215
140	0x3eab8e8f	0.335072
141	0xbd47af71	-0.0487513
142	0xbe7fb1a8	-0.24970114
143	0x3f02dd63	0.5111906
144	0xbc86deba	-0.016463626
145	0x3e363899	0.17795028
146	0xbe61ed91	-0.2206328
147	0x3e1af4df	0.15132473
148	0x3d910d1e	0.0708258
149	0xbe6816d5	-0.2266496
150	0x3e895586	0.26823062
151	0x3e09761a	0.13423958
152	0xbe2486a7	-0.16066991
153	0x3dcbce5c	0.09951469
154	0xbef7b042	-0.48376662
155	0x3e926a54	0.28596747
156	0x3e8af5d5	0.2714068
157	0x3cd460c3	0.025925046
158	0xbe000529	-0.12501968
159	0xbe058b0f	-0.13041328
160	0xbd448c1b	-0.047985177
161	0xbd0bb203	-0.034105312
162	0x3c8a96dc	0.016917638
163	0x3e27697b	0.16348831
164	0x3c1b11c5	0.009464686
165	0xbddf8983	-0.109149
166	0x3c1472bf	0.009060561
167	0x3dad97c8	0.084762156
168	0x3db395f3	0.08768835
169	0xbe2570c7	-0.16156302
170	0xbd019173	-0.03163285
171	0xbe068606	-0.13137063
172	0xbd9a7a07	-0.07542806
173	0x3d8270ad	0.063691474
174	0xbe008c1c	-0.12553447
175	0x3d86945a	0.065712646
176	0x3e19a52f	0.15004419
177	0x3c3df6d3	0.011594492
178	0xbdf14b58	-0.11781949
179	0xbd81b688	-0.06333643
180	0x3d1e1ccd	0.038601685
181	0xbe09fe8a	-0.13476005
182	0x3db3dd53	0.087824486
183	0xbe24578a	-0.16049019
184	0xbe2e033f	-0.16993426
185	0xbe2fe3ad	-0.17176695
186	0xbd12e385	-0.03586151
187	0x3df3725c	0.11887047
188	0xbe2b54bc	-0.16731542
189	0x3e167600	0.14693451
190	0xbd90d2e1	-0.07071472
191	0x3d54121c	0.051775083
192	0xbeadfd6b	-0.33982405
193	0x3f62d28e	0.8860253
194	0xbc2049c0	-0.009783208
195	0x3f098ad6	0.5372747
196	0xbc5a547f	-0.0133258095
197	0x3dbd9c9f	0.09258389
198	0xbcc4de0f	-0.024031667
199	0x3efd62cd	0.49489442
200	0x3dd92632	0.10602988
201	0x3ed17cd3	0.40915546
202	0xbd59ccda	-0.053173877
203	0x3c25d148	0.010120697
204	0xbeb183d2	-0.34670883
205	0xbe3a5125	-0.18195017
206	0xbe8fbabc	-0.28072155
207	0xbee92314	-0.45534575
208	0x3ef987e6	0.48736495
209	0xbd29a50c	-0.041417167
210	0xbf0598fa	-0.5218655
211	0xbe0c20b6	-0.13684353
212	0xbded8c4d	-0.11599026
213	0xbe8f5ec5	-0.2800199
214	0x3dddf9f9	0.10838694
215	0x3e328e8c	0.1743719
216	0x3e33d6b3	0.1756237
217	0xbdb03ea1	-0.086056955
218	0xbf9e57ea	-1.2370579
219	0xbf01b517	-0.50666946
220	0x3eb8318d	0.35975304
221	0x3d7d0867	0.06177559
222	0xbdcd106f	-0.100129
223	0x3e06c613	0.13161497
224	0xbe48c8f0	-0.19607902
225	0x3f10daf9	0.56584126
226	0xbe0b1d47	-0.13585387
227	0x3f074fe3	0.5285627
228	0xbd94a48d	-0.07257948
229	0x3e0a3cd4	0.13499767
230	0x3e3b16cf	0.1827042
231	0x3e42e0cc	0.19031066
232	0x3dcd122d	0.100132324
233	0x3cd295d6	0.025706213
234	0x3c710997	0.014711759
235	0x3e18d8ea	0.14926496
236	0xbded31c5	-0.115817584
237	0xbdcfee1f	-0.1015284
238	0xbde01eb8	-0.10943359
239	0xbecafe0a	-0.3964694
240	0x3e3924e0	0.18080473
241	0xbe830fbd	-0.25597945
242	0x3d4f23ff	0.050571438
243	0x3effe250	0.4997735
244	0xbdea1850	-0.114304185
245	0x3d1657b7	0.036704745
246	0x3e44618c	0.19177836
247	0x3dd64c21	0.10463739
248	0x3e70324e	0.2345669
249	0xbd8941f3	-0.06702032
250	0xbf2114d2	-0.62922394
251	0xbe94cbff	-0.29061887
252	0x3e454b35	0.1926697
253	0x3d589ced	0.05288403
254	0xbd5053a6	-0.050861023
255	0x3e3cb9b9	0.18430223

fc2.bias f4 [32]
0	0xbe3195e2	-0.17342332
1	0xbca7ba0b	-0.020474454
2	0xbf1c00d3	-0.6093876
3	0x3e5d0b35	0.21586306
4	0x3f231e41	0.6371804
5	0xbd900ec1	-0.07034064
6	0x3dd63f56	0.10461299
7	0x3d112516	0.03543576
8	0xbd4254bd	-0.047444094
9	0xbea59502	-0.32340246
10	0x3e180faf	0.14849733
11	0x3e5fa738	0.21841133
12	0x3d5ad7f3	0.0534286
13	0x3e155a11	0.14585139
14	0xbf0e981c	-0.5570085
15	0x3e78b9b6	0.24289593
16	0x3e418ec3	0.18902116
17	0xbe943adf	-0.28951165
18	0x3ed236c3	0.41057405
19	0xbee8c069	-0.45459297
20	0xbd248e16	-0.040174566
21	0xbcafbf7a	-0.021453608
22	0x3f0432b4	0.51639867
23	0x3f2668e0	0.65003777
24	0x3f178f8e	0.5920342
25	0xbf2a0f75	-0.66429836
26	0xbda62c6b	-0.08113941
27	0xbe014648	-0.12624466
28	0xbe21f135	-0.1581467
29	0xbc898b86	-0.016790163
30	0x3e94c652	0.29057556
31	0xbe9e7552	-0.30948883

fc3.weight f4 [3, 32]
0	0xbe0a1df6	-0.13487992
1	0xbe038bb0	-0.12846255
2	0xbe0d6d60	-0.13811255
3	0x3ed3caec	0.41365755
4	0xbf1f99db	-0.6234414
5	0xbdfeeb62	-0.124472395
6	0x3f2aa619	0.66659695
7	0x3e4a06c2	0.1972914
8	0xbc3492d7	-0.0110213375
9	0x3ea61fc2	0.32446104
10	0xbf00e822	-0.50354207
11	0x3e5246b9	0.20534791
12	0xbeccaab2	-0.3997398
13	0x3e59bdd8	0.21263826
14	0xbb325bb6	-0.0027215309
15	0x3f2d37c9	0.67663246
16	0x3e4c55ff	0.1995468
17	0xbe51a1f4	-0.20471936
18	0x3ecc12d6	0.3985812
19	0xbe9d1618	-0.3068092
20	0x3df40a54	0.119160324
21	0x3d54a4ab	0.051914852
22	0xbd5d5764	-0.05403842
23	0xbf6d2992	-0.92641556
24	0x3e7f37c8	0.24923623
25	0xbf39df2a	-0.72606146
26	0x3d3eef43	0.046614897
27	0x3d475e59	0.04867396
28	0xbde3e6a1	-0.11127973
29	0x3ca07fcb	0.019592186
30	0x3e88bd37	0.2670686
31	0x3eac9b9b	0.33712468
32	0x3cfd7e5b	0.03094404
33	0xbd3a2332	-0.04544372
34	0x3eb2e8b7	0.34943172
35	0xbdec9d67	-0.115534596
36	0xbed7b74f	-0.4213204
37	0x3e2e699c	0.17032474
38	0x3e20dde1	0.1570964
39	0x3e5e2e90	0.2169745
40	0x3e20a035	0.15686114
41	0x3f0367a1	0.5133
42	0xbe5e2aad	-0.21695967
43	0x3ecfdfac	0.40600336
44	0xbe55fe97	-0.208979
45	0x3e6042f8	0.21900547
46	0x3f4b5ac3	0.79435366
47	0x3ea378d2	0.31928116
48	0x3ec6d75f	0.3883619
49	0x3eb5efd3	0.35534534
50	0xbc9c37d0	-0.019069582
51	0x3e2264e7	0.15858804
52	0x3d4b961c	0.049703702
53	0x3d95d252	0.07315506
54	0xbe609dfc	-0.21935266
55	0xbee8a24d	-0.45436326
56	0xbe656485	-0.22401626
57	0x3eab724d	0.33485642
58	0xbdce7285	-0.100804366
59	0x3de7760e	0.11301814
60	0xbe2c7268	-0.16840518
61	0xbd2e4d9f	-0.042554494
62	0x3d634c28	0.05549255
63	0x3e940884	0.28912747
64	0xbcc349d0	-0.023838907
65	0x3d64294c	0.055703446
66	0xbf0bff65	-0.54686576
67	0x3d8063fe	0.06269072
68	0xbe00f789	-0.12594427
69	0xbdea4203	-0.11438372
70	0x3e808401	0.2510071
71	0xbcdf6ddb	-0.027274063
72	0x3e1ed4ec	0.15510911
73	0x3d2567f6	0.040382348
74	0xbf2d8286	-0.6777729
75	0x3db70be9	0.089378186
76	0xbe6f5315	-0.23371537
77	0x3e61190b	0.2198221
78	0xbea21ad1	-0.31661084
79	0x3f4c76be	0.79868686
80	0x3ec3054c	0.3808998
81	0xbdf34f24	-0.11880329
82	0x3ed34fb9	0.4127176
83	0xbed6c83f	-0.4194965
84	0x3d2295bb	0.039693575
85	0xbdbe3bed	-0.09288774
86	0x3d1ef5ad	0.038808513
87	0xbf418f8e	-0.7560967
88	0x3e7eb062	0.24871972
89	0xbf7f41fe	-0.9971007
90	0xbe21c818	-0.15798986
91	0x3d88557f	0.06656932
92	0x3d2843d7	0.041080322
93	0xbbd19436	-0.006395842
94	0x3f6013e9	0.8753038
95	0xbe3d59fb	-0.18491356

fc3.bias f4 [3]
0	0x3e1d77e2	0.15377763
1	0xbeceb16b	-0.40369734
2	0x3ed5d97a	0.41767484
