framework/vis_embedding_scripts/embedding_networks/embedding_model_withoutNormConstraints_MultiKeyNav_dim5.pt (torch, 7831 bytes, 6 tensors)

fc1.weight f4 [32, 7]
00000000: 5c73 39bb 6e9f 4f3e 1e46 9fbe d56a 8ebe
00000010: 8611 15be aa92 cf3d 9663 f5bb 2c49 953d
00000020: b04d b0bd 29d2 743b ef58 f23b cff4 0cbf
00000030: dc73 12bf 37e2 51bd c796 0dbd ae3d 853e
00000040: 74df 953e 1c29 853e 6d33 0bbf 0796 aebe
00000050: 47ad 7e3e c7de 723e 3a25 3dbd 9a3d ae3e
00000060: 581c ad3d c6e5 19bf 947b 0c3f 0630 2bbe
00000070: 42f0 083c 1c90 4dbe a07b f5bd 75a9 143f
00000080: ac76 a3bd db57 a5bd 4df1 dabe fc85 48be
00000090: 3a2c bfbe a158 093f 42c5 bfbd 1566 293c
000000a0: 78ce 143d 4766 bfbd 958c 073e 0b5e 29bf
000000b0: f376 83be 7179 d33c 48e0 ab3e d529 a23e
000000c0: 9f8a 0a3e 095a 1dbe 5c1c 8e3e 6e2f c83e
000000d0: 2083 493e 7e46 03be 81e6 b03e b5f0 54be
000000e0: 172a 093d fbe2 f1be 2572 b5be a50d 60be
000000f0: a767 673e 287f c63e 139d 76be 417f ec3d
00000100: 47c1 893e 534a efbd 32e7 aebd 4c15 1d3e
00000110: 2bd2 d53d d300 0e3f ee97 76be e153 bbbd
00000120: 8772 093e 4d41 293f 3fcb d43e ad34 ac3e
00000130: 7d40 ad3e f7a7 ddbd 6818 573e 463a 0dbf
00000140: 51dd debd 43c0 073f 6033 a03d 1dab 54bf
00000150: 540f 0f3d 48fc 8fbd 4d10 3d3d 3e4f 5f3c
00000160: 7715 c43e 0b96 a8be eb26 843e 7e7c 033e
00000170: d377 b33d a826 d939 42d2 52bf bdbe 98bd
00000180: a5ff 423e cb06 4b3f afb5 673c e2b5 7e3d
00000190: 2b46 2d3f cc33 6c3e 077e 69be ffcd b3bd
000001a0: d82b 3cbf 9dc8 81bd 5bb2 0dbf 0a22 91be
000001b0: d072 853d f9c2 fc3d 5e42 e7be 578e a43e
000001c0: 9bbb 69be 8f3d 033f fa8d 6e3e ed2a 09bf
000001d0: 3a54 d03d d34e a7bd 52a6 6d3e 46d2 0e3e
000001e0: 4a10 2b3e c89b 0d3d 3878 063d 8fb0 d53e
000001f0: 55f3 ecbe 3df5 c9bd ecc5 c1bd bc87 3cbe
00000200: e265 07be 849c 9ebe 1ca8 a4bd 7476 a53d
00000210: f523 7cbe 9a1f 81bd b518 ba3e 3bc2 6cbe
00000220: 20db f9bd d176 2bbe 3191 803e 38e3 fe3e
00000230: 5280 bdbd 3ba5 cc3d 5811 833e df69 8bbe
00000240: bc7e 02bf c5d3 403c 710d bf3e a992 20bb
00000250: e85f 40be 834b 94be a21a b5be a354 a3be
00000260: 9502 9dbd ae40 543e 8810 4c3e 0ed4 3abf
00000270: 3620 683e ab86 29be 4cc7 963d 71cf 0bbf
00000280: 62ee a03d b6fb 97bd 38a7 adbe 3217 a7be
00000290: a540 72bd b82a a03b 10d2 2fbe c7cb 113e
000002a0: 56fa 03bd 853a 45be 3541 9f3e 3837 4dbe
000002b0: c628 083f 3f4f ef3e d673 e2be 0c32 3e3e
000002c0: 3bcb 17be b1d8 a2be 88b8 2d3e f1f0 07bf
000002d0: dd56 143e 7cd4 bfbc f1fd 153f ecfe 0a3f
000002e0: e7e7 993e bf08 2e3e 200c 8ebb 8819 a23b
000002f0: 3a11 8abe 02ea 1a3e 699c aa3e b3cf 9f3e
00000300: be6f babe 2203 0bbe 6431 6abe 0ced 19bf
00000310: c5e3 76be bbdb 7f3e a845 14bf d415 fcbc
00000320: c9e3 acbd 3c17 5b3c 8c5e 33bf 01b6 39be
00000330: 7356 77be d3ae 2a3e b0a1 ebbd 3a12 183f
00000340: 7811 cb3e 62f0 503e fb63 38bb 0405 99bd
00000350: 623d 423d 4bc1 b0bd f70b 2ebb 3e88 453d
00000360: e15e 97be 6e69 1e3e acaa 153f 7634 d0be
00000370: 1eff d43d f713 053f 041f 813e b992 563e
-0.002829752 0.20275661 -0.31108183 -0.2781588 -0.14557466 0.10135396 -0.007488678 0.07289347
-0.08608568 0.003735671 0.0073958556 -0.5506105 -0.5720804 -0.051241126 -0.03456762 0.2602362
0.29272044 0.26007926 -0.54375345 -0.34098837 0.24870788 0.23717795 -0.04617808 0.34031373
0.08452672 -0.6011623 0.54876065 -0.16717538 0.008358063 -0.20074505 -0.1198647 0.5807107
-0.07981619 -0.08073398 -0.42762223 -0.19582361 -0.3733843 0.5365086 -0.09363796 0.01033928
0.036329716 -0.0934568 0.13237222 -0.66159123 -0.2567669 0.025814744 0.3356955 0.3167254
0.13529442 -0.15366377 0.2775601 0.39098686 0.19678926 -0.1281986 0.3455086 -0.20794947
0.033487406 -0.47243485 -0.35438648 -0.21880205 0.22598134 0.38768888 -0.24083357 0.11547709
0.2690527 -0.11684098 -0.08540191 0.15340155 0.10440477 0.5547001 -0.24081394 -0.09146858
0.13422595 0.66115266 0.41561314 0.33633938 0.33838263 -0.108230524 0.21005404 -0.55167043
-0.108820565 0.53027743 0.07822299 -0.830736 0.034926727 -0.07030541 0.046158124 0.013629733
0.38297626 -0.32926974 0.25810942 0.12840459 0.08763089 0.00041418266 -0.8235208 -0.074582554
0.19042833 0.7930724 0.014142438 0.062185176 0.6768519 0.23066634 -0.22801982 -0.08779525
-0.735044 -0.06337092 -0.55350274 -0.28346282 0.06516039 0.123418756 -0.45167822 0.32139847
-0.22825472 0.51265806 0.23296347 -0.53581125 0.10172315 -0.081693314 0.23207977 0.139474
0.16705433 0.034572393 0.032829493 0.41736266 -0.46279398 -0.098612286 -0.09461579 -0.18411154
-0.13222459 -0.30978787 -0.08039877 0.08079234 -0.24623092 -0.06304856 0.36346975 -0.23120968
-0.12199998 -0.16744544 0.25110772 0.4978273 -0.09252991 0.09992453 0.2559917 -0.2722921
-0.5097463 0.01176924 0.37314942 -0.0024501479 -0.18786585 -0.2896386 -0.35371882 -0.3190051
-0.07666508 0.20727798 0.19928181 -0.7297982 0.22668537 -0.16555278 0.073622316 -0.54613405
0.07857968 -0.07421057 -0.3391664 -0.32634884 -0.05914368 0.004887905 -0.17169976 0.14237891
-0.03222116 -0.19260605 0.31104437 -0.20040596 0.53187215 0.46740147 -0.44229 0.18573779
-0.1482362 -0.31805947 0.16964924 -0.5310202 0.1448626 -0.02341675 0.5859061 0.5429523
0.3005974 0.16995524 -0.0043349415 0.004946891 -0.26966268 0.1512833 0.33322456 0.3121315
-0.36413378 -0.13575414 -0.22870404 -0.6012733 -0.24110325 0.24986164 -0.57918787 -0.030772127
-0.08441884 0.013372239 -0.7006614 -0.18135835 -0.24154072 0.16668253 -0.11505449 0.5940281
0.39661765 0.20404199 -0.0028135765 -0.0747166 0.04742182 -0.08630618 -0.0026557425 0.048225634
-0.29564574 0.15469906 0.5846355 -0.40665025 0.10400222 0.5198359 0.25218976 0.20954408

fc1.bias f4 [32]
00000000: 57b4 a7be 2cad 103f bbed 30be 38e5 083e
00000010: a368 1e3d a851 e23d 1964 8a3d b355 d73e
00000020: 7d17 583e b89b 6f3e 25f2 583e 1a6b b13c
00000030: 645d bd3e 5250 c2bd 3982 ba3d 7f59 b03e
00000040: 27d6 5f3e 6674 ff3e 912f f9bd 2fa3 573e
00000050: 2479 d63e 4926 bbbe 3191 f83e 3306 a0be
00000060: 7e26 ebbd cdb2 283e 5413 18be 61be 353e
00000070: d4f3 243f 1102 41be e0c7 65be 1124 18be
-0.32754776 0.5651424 -0.17278187 0.1336869 0.038674008 0.11050731 0.06757373 0.4205757
0.2110271 0.23399246 0.21186121 0.021657515 0.36985314 -0.09487976 0.09106869 0.3444328
0.21859036 0.49893492 -0.12167276 0.21058343 0.41889298 -0.36552647 0.48548272 -0.3125473
-0.11481951 0.16474457 -0.14851123 0.17748405 0.6443455 -0.18848445 -0.22439528 -0.14857508

fc2.weight f4 [32, 32]
00000000: c16a 33be 867c 733e 9fa6 813e f41b c6be
00000010: 89c8 ad3e 7a0d 9a3e 5cf3 253e 36d1 743d
00000020: 0839 683e 5288 10be 6db1 513c 3ff2 4d3e
00000030: b02c 963e dc5c 2f3d 62f1 c93d 9c45 1a3e
00000040: 8926 5dbe 04d0 853d 762b cbbd bbc1 e6be
00000050: 192a 523e aa1c ebbd da6f ae3e 8871 4f3d
00000060: 5982 893c 6285 babe a46a cdbe b464 d83d
00000070: ea01 b2bc 5b9e 9d3e 79bd 72bd 8235 1dbe
00000080: 4a94 25bd 7717 8ebc 5f7f dcbd 97bb 463d
00000090: b7ed 643d 0e78 bbbb 5ed7 7dbd 0972 f1bd
000000a0: c62c cd3d d43e 16be 3f14 6a3d 3b79 73bd
000000b0: bc39 e9bd de5d 8c3c 4210 bcbd bcf0 9d3c
000000c0: ea09 cf3c 413e 0dbe 9b1d f13c 4918 6b3d
000000d0: e1d5 683d b44a b6bc 653b 1fbe 2a3d dfbc
000000e0: 207c 643d 3123 b2bd 314f 773d 77c7 e33d
000000f0: 563f c9bd 8c14 a2bc dfb3 953d 59e0 0ebc
00000100: ddee 713c fcdb 703d 5e85 7e3e 9234 31bd
00000110: 400a 253f 8eaa 843d 1eb4 623e f172 ffbc
00000120: 0e1a 1cbf d749 99bc fe4b afbe aaef 80be
00000130: d439 1a3e fbfa 193f 0e81 183d eff4 d7bd
00000140: a8d7 a83e 40a8 543e 4a48 1e3e 27b1 953e
00000150: 897f a53d e11b 7ebd 638c a63d 0ce1 ca3d
00000160: 2e0f 98be 31a6 713e 0823 0f3e 39da e93c
00000170: 4275 f2bd 1bd1 993e 96d5 7dbd 801b 373e
00000180: 784a 02bd 69a3 073f 796d 5d3e 2835 993d
00000190: b813 4c3e 7406 10be 12ae 393e 4c7c 2a3e
000001a0: 599f 4f3e 6ce0 00be 629c 42bd d3b1 093f
000001b0: 2495 193e 97b2 debd b73e b9be 009f f2be
000001c0: 3804 a6be 66b8 2f3e 9e1e ebbd 2eba fc3d
000001d0: 002e 4fbd a2a3 b0bd 968a 80be bd8b cdbd
000001e0: b1d1 db3c aeeb c93e ad57 593e b4d4 1b3f
000001f0: 394a 303f 9320 44bc 3a4c 9f3d a9b2 7f3e
00000200: d389 6f3d 5942 ef3e 36c7 723e e539 19be
00000210: 6c0f cc3e f618 d03e 76ea 143e ca43 c9bd
00000220: d943 b3be 6205 31be 92fe b4bd 8bac a13d
00000230: 4885 923e dcbe 4a3d c1b2 233e d562 b23e
00000240: 3f95 ab3d 2c40 833d 65ee aabd fa34 a53c
00000250: 686a 163e 846b 09be c2da 023f 1a76 093e
00000260: 24fc 51be aaeb 693d 765f 98be 3c82 01be
00000270: 1ce4 803e 75e2 143e 2905 00be e03e c1be
00000280: 1b8c 44bd b27a 04bf 3a52 afbd defc b93e
00000290: ccb7 aebe c333 ad3d 6bb0 333d 38b3 093e
000002a0: 8343 d43d 7522 c6bc e8e4 21bc bd9c a5be
000002b0: 62c6 673c 43b6 ae3e 6cdd d03e 1002 923e
000002c0: 51bc bd3e 476f 763b 584b f1bd ef92 c93d
000002d0: 13f5 5d3e 8afe 09be 9cad 3f3e 8a57 24be
000002e0: 4105 75be 1997 c73c d53f 64bd c9ef 69bc
000002f0: b1b6 b6be a4c7 d5bc e1d2 90bd 41f4 cdbd
00000300: 8514 043c 8f5c ddbe 3b39 e1bd fee1 883e
00000310: 2b44 243e de4d c63d 66cd f43c 8a8a 903e
00000320: f96e e03e 6d3a 463e 5d77 32bd 5bf1 d13d
00000330: 2f91 38be b300 07bd 35da 8bbe 4d80 44be
00000340: 9239 843d 4f59 b73d ccbd c93c 3674 48bd
00000350: 4eae 6b3c d063 5fbd 6516 0d3e 8c8e 323e
00000360: 31cf 0abd a374 9b3e 1a64 ba3c 225f bd3b
00000370: e5cf b13e 3204 74bd 6f10 cdbd c72c 2dbc
00000380: 2293 ffbd c79c 1abf 77f8 e83b 3185 723d
00000390: ca1c 37be 2cc7 9b3e b4e6 cbbb a4e1 0d3e
000003a0: 7104 cbbe e2fc 9a3d e730 f83c f1da a2bb
000003b0: 81ac d53d 27e9 90be 7112 913e 76b6 cd3c
000003c0: b84f 07be a3fa b2bd 4b2b 203e c6bc e43e
000003d0: 98a4 5ebd 6358 ff3d 65d7 2d3e 214c d63d
000003e0: cc45 d23c 53ba cc3d 2518 21be 4a5c 443e
000003f0: 3495 3abd 78f7 77be a653 50bd 198d d23d
-0.17521192 0.2377797 0.25322434 -0.38693202 0.3394206 0.30088407 0.16206115 0.05976983
0.22678006 -0.14114502 0.012798649 0.20111941 0.2933097 0.042813167 0.09860493 0.15065616
-0.21596731 0.065338165 -0.09920399 -0.4506968 0.20523871 -0.114800766 0.3406971 0.05064538
0.016785787 -0.36429888 -0.40120423 0.105660826 -0.021729428 0.30784878 -0.059262726 -0.15352443
-0.040424623 -0.017345173 -0.107664816 0.048518743 0.055890765 -0.0057210987 -0.06197297 -0.117893286
0.100183055 -0.14672405 0.057148214 -0.059441786 -0.11387965 0.017134603 -0.091827884 0.01927983
0.025273282 -0.13793279 0.029433062 0.057396207 0.056844596 -0.022252418 -0.15550001 -0.027250845
0.055782437 -0.086981185 0.060378257 0.11122029 -0.098265335 -0.019785188 0.07309698 -0.008720481
0.014766422 0.058803543 0.24855563 -0.043263026 0.64468765 0.06477843 0.22139022 -0.031182738
-0.60977256 -0.018711967 -0.34237665 -0.2518285 0.15061122 0.6014859 0.03723245 -0.10544764
0.32977033 0.20767307 0.15457264 0.2923672 0.08080966 -0.062038306 0.081322454 0.099062055
-0.2969908 0.23598553 0.13978207 0.02854644 -0.118387714 0.30042347 -0.06197127 0.17881584
-0.0318093 0.5298372 0.21623792 0.07480842 0.19929397 -0.14064962 0.18132809 0.16648978
0.2027563 -0.1258561 -0.04751242 0.53786963 0.14998299 -0.10873907 -0.3618066 -0.47386932
-0.32425094 0.17160186 -0.11480449 0.123401985 -0.05058098 -0.086249605 -0.25105733 -0.100364186
0.026833387 0.39437622 0.21224852 0.60871434 0.68863255 -0.011970657 0.07778211 0.24970497
0.05848105 0.46730307 0.23708805 -0.14963491 0.39855516 0.40644044 0.14542565 -0.09827383
-0.350127 -0.1728721 -0.08837618 0.07894238 0.2861731 0.049498424 0.15986158 0.34841028
0.08378076 0.06408724 -0.083462514 0.020166863 0.14689028 -0.1341992 0.5111505 0.13423958
-0.2050634 0.057109512 -0.2976033 -0.12647337 0.25174034 0.14539512 -0.12501968 -0.37743282
-0.047985177 -0.5174972 -0.08560605 0.36325735 -0.341246 0.084571384 0.043869417 0.13447273
0.10364439 -0.024186352 -0.009881236 -0.32346144 0.014146419 0.3412343 0.4079393 0.285172
0.37057737 0.0037602948 -0.11781949 0.098424785 0.2167552 -0.13476005 0.1871857 -0.16049019
-0.23927785 0.024364041 -0.055724937 -0.014278361 -0.35686257 -0.026096173 -0.07071472 -0.10056353
0.008061533 -0.4323468 -0.10997244 0.26734918 0.16041629 0.09682821 0.029883098 0.28230697
0.43834665 0.19358225 -0.043570865 0.10251113 -0.18024133 -0.03295965 -0.27314916 -0.19189568
0.06456293 0.08952581 0.024626635 -0.048938952 0.014384819 -0.054538548 0.13778074 0.1743719
-0.033889 0.30362424 0.02275281 0.005779163 0.34728923 -0.059574313 -0.100129 -0.010569758
-0.12479235 -0.60395473 0.0071096974 0.059209052 -0.17882076 0.30425394 -0.0062225703 0.13855606
-0.39651826 0.07567765 0.030296756 -0.0049699475 0.10433293 -0.2830288 0.28334382 0.025111418
-0.13214004 -0.087392114 0.15641515 0.44675273 -0.054356188 0.1246803 0.16976698 0.10463739
0.025668047 0.09996476 -0.15731867 0.1917583 -0.045552447 -0.24215496 -0.050861023 0.102808185

fc2.bias f4 [32]
00000000: 1cd9 a0bd 0a1f 08bd 303c 173c 97ee 923e
00000010: cf5e 573e 90fe 893d e07b 373e d17c bb3e
00000020: aeb8 293e 4c2b 1dbe 16b0 903e e937 8b3e
00000030: 8a1c 83bd af84 be3c 8dd7 79be c79c b6bd
00000040: 271e 463d 5a4b 29bd 5d7e 4bbc 466c b5bd
00000050: ad8e b13d 9e7a 603e 2033 163e 9543 9d3e
00000060: b316 873e ac0d a03d 1212 d7bd 4846 01be
00000070: 35f1 21be 64e4 5a3e a202 c03e 489f 053e
-0.0785391 -0.033232726 0.009230658 0.28697655 0.2103226 0.06738007 0.17918348 0.36618665
0.16574356 -0.15348548 0.28259343 0.27191094 -0.06401928 0.023256628 -0.24398632 -0.08916622
0.0483686 -0.041331626 -0.012420264 -0.08858542 0.08669791 0.21921775 0.1466794 0.30715623
0.26384506 0.07815108 -0.105014935 -0.12624466 -0.1581467 0.21376187 0.3750201 0.13049042

fc3.weight f4 [5, 32]
00000000: 455d 86bd db6b f2bd 6492 83be 4def ba3e
00000010: 4611 dbbe 5c16 c3bd f8fd a63e 200f b03e
00000020: 3c8e 2a3f d4f2 b13c afa8 a83e c28b 79bc
00000030: 1fcc 843d 2a55 6d3e 4279 b3be 120e b23b
00000040: 16ad f43e 8b8a a3be 06a4 2abe 0c69 84be
00000050: 428b 273f e28e a83e 1c8c 67be 55f6 953e
00000060: 34e1 0c3f 899d b33d eafb 773c 595e 473d
00000070: a1e6 e3bd 21ef 903e efe3 88bd 6aeb 133f
00000080: 9c5f 98be c83f 0abd 2bc7 e23e 7652 a9be
00000090: c2b4 12be 54ce d83e 05c9 aebd 1ae8 c13e
000000a0: 8a00 313f 4320 193e a762 c6bc f20f ae3e
000000b0: f164 24be c7f6 4abd 0a5b 64bd 5a1d 113e
000000c0: a4cf 793e ccf6 933e 978c b8be 55a2 043f
000000d0: 3cdb a43e 7a9c ae3d 8b98 663e 8643 4b3d
000000e0: a882 eebe b900 f83e c9de 78bd 0e76 e73d
000000f0: 6872 2cbe 79d2 95bc b104 57bc 0f6b 6a3e
00000100: e0f0 1a3f 0aab 383d 8389 933e 3ca7 a03d
00000110: 7013 323f f2f5 92be a7e8 18be 2e0f 52bd
00000120: 9f19 0dbc b5c4 163e f7e3 123f f20c b3be
00000130: ee6c 16bf f6ac b43e 9da5 993d 1621 c83e
00000140: 692f f03d 054a dc3e 176b 893e 9a50 ba3d
00000150: a57b 373e 99ef 2ebe 66fe 823e 5109 f23c
00000160: 9a16 c83e 05a8 9cbc 1b8f 09be 7f55 883d
00000170: d743 283d 9471 3ebe 6598 343f 57bd 11be
00000180: eaac 443e 167e ddbd e893 c23d 9244 5abe
00000190: 3b58 f6bc 2e38 c43e a9bb 483e fdbc 33be
000001a0: 1110 3f3d 253f 21be 6db3 94be e119 393e
000001b0: a59b debe 6d42 0fbf 30b7 10bf 087c 81be
000001c0: cc93 b9be 5830 9ebd e865 523e a918 1b3e
000001d0: d3ec 0fbf 67d5 31bf 3d7a acbe 33b1 2c3c
000001e0: b255 1e3f a9c8 cabe 2aca 8ebd c221 c1bd
000001f0: d2ba 7abc e8e6 cfbe e567 fcbe e2ee 983e
00000200: 6111 1d3e 4389 30bd 5a8b e5be bd62 f3be
00000210: 1cd4 a23e 59eb d53d 3f28 c7bd 1ece 603e
00000220: a7e4 84be 3018 26be 61fb 423f 1cfb a93e
00000230: 7d1d 4f3f a4e5 0fbe 0bfb 443d b650 f9be
00000240: 46f7 14bf 2094 7fbe d2e5 34be 5f55 62bd
00000250: da36 4bbd cba1 b6bd 5cba 97be d7c8 f7be
00000260: 63a8 36be e98c a1be 2795 913d 0a7f c13d
00000270: d593 293e 0881 9abd 7099 383e fb89 363e
-0.065607585 -0.11836978 -0.25697625 0.36510697 -0.42786616 -0.09525749 0.32615638 0.3438654
0.6662328 0.021722235 0.32941195 -0.015231075 0.064842455 0.23177019 -0.3505345 0.005433806
0.47788304 -0.31941637 -0.16664132 -0.25861394 0.65446866 0.3292151 -0.22612041 0.292895
0.5503113 0.08770282 0.015135745 0.04867396 -0.11127973 0.2830744 -0.066841 0.5778109
-0.29760444 -0.033752233 0.44292578 -0.33070725 -0.14326766 0.42344916 -0.08534435 0.37872392
0.6914145 0.14953713 -0.024216963 0.3399654 -0.16054131 -0.04955175 -0.055750884 0.14171353
0.24395615 0.2889923 -0.36044762 0.518102 0.32198513 0.08525939 0.22519128 0.049624942
-0.46584058 0.4843805 -0.06075934 0.11301814 -0.16840518 -0.018288838 -0.013123677 0.22892402
0.60523796 0.04508499 0.2881585 0.078443974 0.6956091 -0.28703266 -0.149325 -0.051284008
-0.008612066 0.14723475 0.57379097 -0.34970814 -0.58759964 0.3528821 0.07502291 0.39087743
0.11727793 0.43025222 0.26839516 0.09097405 0.1791826 -0.17083587 0.25584716 0.029545458
0.39079744 -0.019123087 -0.13433497 0.06656932 0.041080322 -0.18598014 0.70545036 -0.14232384
0.19206586 -0.108150646 0.09500867 -0.2131522 -0.030071368 0.38324112 0.19602837 -0.17552562
0.04664618 -0.15746744 -0.2904314 0.18076278 -0.43478122 -0.5596073 -0.5652952 -0.2528994
-0.36245573 -0.077240646 0.20546687 0.15146126 -0.5622074 -0.6946625 -0.3368701 0.010540294
0.6184951 -0.39606217 -0.069721535 -0.09430267 -0.0153033305 -0.40605855 -0.49298015 0.29869753
0.15338661 -0.043099653 -0.4483288 -0.4753627 0.31802452 0.1044528 -0.09724473 0.21953627
-0.25955698 -0.16220164 0.76164824 0.33199394 0.8090437 -0.14052445 0.048090976 -0.4869439
-0.5818981 -0.24958849 -0.17665794 -0.055257197 -0.049612857 -0.08917578 -0.29634368 -0.48395416
-0.17837672 -0.31552818 0.07108527 0.09448059 0.165603 -0.07544142 0.18027282 0.17826073

fc3.bias f4 [5]
00000000: c6f6 d03e 59d0 8e3e b8a0 39be 5cf1 75be
00000010: da72 a8be
0.40813273 0.27893332 -0.18127716 -0.24017853 -0.32900125
