framework/vis_embedding_scripts/embedding_networks/embedding_model_withoutNormConstraints_MultiKeyNavAB_dim3.pt (torch, 7575 bytes, 6 tensors)

fc1.weight f4 [32, 7]
-0.002829752 0.20275661 -0.31108183 -0.2781588 -0.14557466 0.10135396 -0.007488678 0.051505085
0.028825333 0.15381165 -0.20210998 -0.20251986 -0.31261227 -0.39616948 -0.2388918 0.25360575
0.3206938 0.29386783 -0.2115552 -0.15818572 0.15248698 0.49388164 -0.35882276 0.5805129
0.026501218 0.09606653 0.39594138 -0.11328081 -0.26649547 -0.24861676 0.0026036375 0.45960176
-0.14377396 -0.17322077 0.010458524 -0.39625937 -0.13015789 0.56978875 0.23506476 0.16215116
0.16421638 0.10439033 0.18900074 -0.516713 -0.29614735 -0.19326566 0.29869226 0.21450296
-0.2610877 -0.17270313 0.32777905 0.6450371 0.16776597 -0.015370066 0.17486256 -0.1423228
0.3494757 -0.36065477 -0.13875464 0.0077255866 0.22324824 0.28004932 -0.20583755 0.0057397685
0.15070939 -0.20768273 0.014522562 -0.009023844 0.23033884 0.34481138 -0.6095559 0.13672912
0.22941071 0.48885608 0.15089719 0.15272592 0.079548225 -0.2937587 0.13381472 -0.6068778
-0.23802638 0.27086776 0.28771496 -0.5126132 -0.10707168 -0.053066667 -0.121854745 -0.105912
0.037375167 -0.15605927 0.23052843 0.25066146 0.5094314 0.21386416 -0.19790256 -0.045070972
0.2970021 0.18082352 -0.14617307 -0.4181559 0.51854885 0.26566732 -0.09595589 -0.013496114
-0.084266804 0.0974975 -0.3399693 -0.25342008 0.1415306 0.1356871 -0.10164369 0.2941316
-0.3001659 0.517885 0.3140772 -0.20843829 -0.038327683 -0.03874295 0.06535123 0.1655643
0.12654583 -0.04428822 -0.10568894 0.05213957 -0.37258607 -0.16849214 -0.09461579 -0.18411154
-0.13222459 -0.30978787 -0.08039877 0.08079234 -0.24623092 0.1529048 0.58286965 -0.23576334
0.08526969 0.07605707 -0.018034572 0.12680416 0.46056876 0.1562767 0.55023307 -0.14512226
-0.413301 -0.18429042 0.23262668 -0.0024501479 -0.18786585 -0.2896386 -0.35371882 -0.3190051
-0.07666508 0.20727798 0.26070514 -0.55773747 0.31331375 -0.18056293 -0.016542368 -0.06268773
-0.0033896575 -0.07421057 -0.3391664 -0.32634884 -0.05914368 0.004887905 -0.17169976 0.14237891
-0.31382993 0.038188536 0.44121292 -0.18254934 0.5129874 0.11096344 -0.21120049 0.22428821
0.17010435 -0.25875086 0.33319893 -0.3268929 0.09298825 -0.19724219 0.34659755 0.25674066
0.254089 0.35884482 -0.0002680445 0.049690895 -0.109341055 0.20650235 0.50324124 0.32029894
-0.17932834 0.05426997 -0.15871565 -0.23283234 -0.35343912 0.27077937 -0.30082792 -0.11967735
-0.0052657626 0.26943582 -0.088438995 -0.050249353 -0.13285062 0.46172085 -0.02934996 0.40756395
0.23449746 0.22599767 -0.0028135765 -0.0747166 0.04742182 -0.08630618 -0.0026557425 0.048225634
-0.29564574 -0.1041464 0.6048486 -0.32092947 0.17654653 0.43554696 0.13972357 0.05884058
00000000: 5c73 39bb 6e9f 4f3e 1e46 9fbe d56a 8ebe
00000010: 8611 15be aa92 cf3d 9663 f5bb fff6 523d
00000020: 1b23 ec3c cd80 1d3e ebf5 4ebe 5e61 4fbe
00000030: b70e a0be bad6 cabe 0da0 74be 9dd8 813e
00000040: fa31 a43e d875 963e eda1 58be 70fb 21be
00000050: 8c25 1c3e 0ede fc3e 9eb7 b7be 7e9c 143f
00000060: 1519 d93c 87be c43d d4b8 ca3e c5ff e7bd
00000070: 1872 88be 6495 7ebe caa1 2a3b ec50 eb3e
00000080: 7b39 13be c960 31be 3b5a 2b3c 82e2 cabe
00000090: 1c48 05be addd 113f d1b4 703e f40a 263e
000000a0: 5728 283e 99ca d53d 6989 413e 4e47 04bf
000000b0: a0a0 97be 6fe7 45be 31ee 983e aaa6 5b3e
000000c0: 49ad 85be 17d9 30be a8d2 a73e 2721 253f
000000d0: d8ca 2b3e bbd2 7bbc 2c0f 333e 11bd 11be
000000e0: 7bee b23e bea7 b8be b215 0ebe eb26 fd3b
000000f0: 309b 643e a062 8f3e 14c7 52be ab14 bc3b
00000100: 9053 1a3e c8aa 54be 0af0 6d3c bfd8 13bc
00000110: f2dd 6b3e 1e8b b03e db0b 1cbf b802 0c3e
00000120: a4ea 6a3e 584b fa3e cb84 1a3e 2f64 1c3e
00000130: 2eea a23d 8a67 96be ba06 093e 585c 1bbf
00000140: 30bd 73be 2eaf 8a3e 604f 933e 9e3a 03bf
00000150: 6648 dbbd 6f5c 59bd fb8e f9bd 64e8 d8bd
00000160: b416 193d 00ce 1fbe a50f 6c3e b356 803e
00000170: 196a 023f 35ff 5a3e f8a6 4abe 579c 38bd
00000180: a910 983e cd29 393e 65ae 15be 8818 d6be
00000190: 9ebf 043f 8c05 883e 8684 c4bd ce1e 5dbc
000001a0: 1394 acbd c5ac c73d 7510 aebe 47c0 81be
000001b0: 66ed 103e 8ff1 0a3e 912a d0bd 6b98 963e
000001c0: 58af 99be 1d94 043f bace a03e d970 55be
000001d0: 7dfd 1cbd edb0 1ebd ded6 853d b089 293e
000001e0: 3b95 013e 9167 35bd 7173 d8bd 4d90 553d
000001f0: 9ac3 bebe 3489 2cbe ecc5 c1bd bc87 3cbe
00000200: e265 07be 849c 9ebe 1ca8 a4bd 7476 a53d
00000210: f523 7cbe 1393 1c3e f236 153f f26b 71be
00000220: e0a1 ae3d cfc3 9b3d 3dbd 93bc f3d8 013e
00000230: abcf eb3e 0007 203e 13dc 0c3f ee9a 14be
00000240: 309c d3be a1b6 3cbe b035 6e3e a992 20bb
00000250: e85f 40be 834b 94be a21a b5be a354 a3be
00000260: 9502 9dbd ae40 543e 257b 853e e2c7 0ebf
00000270: a96a a03e 7de5 38be dc83 87bc 6d62 80bd
00000280: 0425 5ebb b6fb 97bd 38a7 adbe 3217 a7be
00000290: a540 72bd b82a a03b 10d2 2fbe c7cb 113e
000002a0: 51ae a0be 956b 1c3d a9e6 e13e 37ee 3abe
000002b0: 2453 033f cd40 e33d f144 58be cfab 653e
000002c0: d62f 2e3e fe7a 84be 0d99 aa3e 825e a7be
000002d0: a070 be3d dbf9 49be 3c75 b13e 8373 833e
000002e0: f417 823e 82ba b73e 5388 8cb9 ae88 4b3d
000002f0: 34ee dfbd 5a75 533e 6bd4 003f 39fe a33e
00000300: d9a1 37be 304a 5e3d 5b86 22be 9a6b 6ebe
00000310: f9f5 b4be 98a3 8a3e 1e06 9abe 6619 f5bd
00000320: 6b8c acbb 7ef3 893e 811f b5bd 44d2 4dbd
00000330: fe09 08be ad66 ec3e 546f f0bc 39ac d03e
00000340: 1a20 703e ef6b 673e fb63 38bb 0405 99bd
00000350: 623d 423d 4bc1 b0bd f70b 2ebb 3e88 453d
00000360: e15e 97be b54a d5bd 5cd7 1a3f de50 a4be
00000370: 9dc8 343e 0300 df3e b213 0f3e d202 713d

fc1.bias f4 [32]
-0.32754776 0.3534449 -0.24745068 0.0016732648 0.040451594 0.097993426 0.11044607 0.20051242
0.18833323 0.5742259 0.30490068 -0.07118704 0.44039285 -0.28709325 0.13575673 0.28386137
-0.02943052 0.52194345 -0.12167276 0.103250325 0.27314994 -0.36552647 0.43175808 -0.3125473
0.00063487916 0.10026663 -0.18365148 -0.05057934 0.6004208 -0.03340782 -0.22439528 0.027698798
00000000: 57b4 a7be bbf6 b43e b663 7dbe 7351 db3a
00000010: 92b0 253d c7b0 c83d 8d31 e23d 2153 4d3e
00000020: 6dda 403e 7800 133f f11b 9c3e 83ca 91bd
00000030: 2c7b e13e e3fd 92be d003 0b3e 4756 913e
00000040: 4618 f1bc 169e 053f 912f f9bd e874 d33d
00000050: 4fda 8b3e 4926 bbbe 650f dd3e 3306 a0be
00000060: 056e 263a 9758 cd3d 220f 3cbe 482c 4fbd
00000070: 2db5 193f a3d6 08bd e0c7 65be 97e8 e23c

fc2.weight f4 [32, 32]
-0.17521192 0.246247 0.093528636 -0.118422434 0.16456825 0.3570217 -0.00026295858 0.19592816
-0.12480626 -0.027203169 0.10056138 0.11943579 0.26622164 -0.08260131 0.11246339 -0.047683865
-0.08822735 -0.0423724 -0.09920399 -0.37205583 0.28101492 -0.114800766 0.20382203 0.05064538
0.11847762 -0.2981271 -0.34473538 0.08100602 0.15065208 0.28501278 -0.059262726 -0.07101995
-0.040424623 -0.0078614615 -0.13799374 0.02089366 0.055890765 -0.04252097 -0.03975746 -0.14786297
0.09182725 -0.17047997 0.033530742 -0.059441786 -0.0852891 -0.0071271476 -0.12223396 0.04073021
-0.004074347 -0.16998589 0.029433062 0.03641614 0.031093089 -0.022252418 -0.18372782 -0.027250845
0.022516688 -0.094908595 0.028221788 0.078845836 -0.13116813 -0.03713429 0.07309698 -0.024981752
0.014766422 0.10647984 -0.19585669 0.24821521 -0.58724743 -0.075844616 0.042570345 0.0003175325
0.03453338 -0.24869536 -0.4189295 -0.19861354 -0.1915921 0.34818566 -0.4676228 -0.15609722
-0.024071716 0.08554929 0.15457264 0.1985034 0.07287685 -0.062038306 0.11870351 0.099062055
-0.25289017 0.04045514 0.47701865 0.3274731 -0.6375586 0.044965703 -0.06197127 0.056725144
-0.0318093 -0.004876658 0.024376659 -0.23411182 0.17911191 0.085809216 -0.31115395 0.10603761
-0.25300375 -0.04788022 -0.07158631 0.22842965 0.25262484 0.19997612 0.10029646 -0.13932316
0.14410149 0.018560406 -0.11480449 0.28546315 -0.08031508 -0.086249605 -0.5867356 -0.100364186
0.18023722 0.17747942 -0.15391119 0.1832874 0.48225555 -0.15955457 0.07778211 0.27144963
0.05848105 0.5063422 -0.07171547 0.08931318 -0.033350743 -0.06263148 0.22103803 -0.004753246
0.15252511 0.07313339 -0.08960708 0.07190459 0.19545166 0.0105717 -0.08926761 0.23426212
0.10339569 0.202847 -0.083462514 0.34966907 0.16831824 -0.1341992 0.1321084 0.13423958
-0.2089798 0.1900501 -0.0072091892 -0.04503254 0.44144484 -0.11638742 -0.12501968 0.1395873
-0.047985177 -0.002148539 0.1981168 0.21117122 0.0013573491 -0.12149516 0.104373224 0.18614064
0.12983121 -0.07898538 0.06824798 -0.07855309 -0.11225679 0.19259587 -0.3008638 0.04904986
0.25937727 0.0015364581 -0.11781949 0.0829782 0.05573746 -0.13476005 -0.05201089 -0.16049019
-0.13100061 -0.14361534 0.04631659 0.20301618 -0.14652713 0.2105315 -0.07071472 0.19211036
0.008061533 -0.06357167 0.34031162 0.27219948 0.38113573 0.44467336 -0.21153806 0.25988153
-0.08733687 0.1747779 0.038116336 -0.009471786 -0.0011207543 -0.10917486 0.35461164 0.020001987
0.09982208 0.0065440033 0.024626635 -0.3187697 0.13763826 -0.054538548 0.49119475 0.1743719
0.29175687 0.004642493 -0.023793092 -0.19634746 -0.21169922 0.36458832 -0.100129 -0.18737297
-0.12479235 -0.28436583 0.02308693 0.11015157 0.07587912 0.20784107 0.08391449 0.1598303
-0.10135176 -0.077077895 0.022931699 0.15370782 0.076625444 -0.11271613 0.09620596 -0.032585416
-0.048190966 -0.15302655 0.15641515 0.18689506 -0.23138188 0.1246803 0.084037736 0.10463739
0.2509536 0.06012867 -0.018703291 0.10358815 -0.13630076 0.10035195 -0.050861023 0.058060233
00000000: c16a 33be 2c28 7c3e f18b bf3d 7687 f2bd
00000010: 9484 283e 8ccb b63e b4dd 89b9 64a1 483e
00000020: 6d9a ffbd 2ed9 debc 20f3 cd3d c09a f43d
00000030: 344e 883e e02a a9bd 3553 e63d 2850 43bd
00000040: 8ab0 b4bd af8e 2dbd 762b cbbd 1a7e bebe
00000050: 30e1 8f3e aa1c ebbd b9b6 503e 8871 4f3d
00000060: 65a4 f23d 1ea4 98be 2881 b0be 7ce6 a53d
00000070: 8a44 1a3e 32ed 913e 79bd 72bd e872 91bd
00000080: 4a94 25bd 5ccd 00bc 3b4e 0dbe 2e29 ab3c
00000090: b7ed 643d 782a 2ebd b8d8 22bd 6469 17be
000000a0: ed0f bc3d 4d92 2ebe 8857 093d 3b79 73bd
000000b0: 0dac aebd d98a e9bb cc55 fabd b8d4 263d
000000c0: 1a82 85bb c810 2ebe 9b1d f13c 1729 153d
000000d0: efb6 fe3c b44a b6bc 2523 3cbe 2a3d dfbc
000000e0: eb74 b83c 705f c2bd 6131 e73c ed79 a13d
000000f0: f050 06be 201a 18bd dfb3 953d 88a6 ccbc
00000100: ddee 713c 1a12 da3d a88e 48be 212c 7e3e
00000110: d955 16bf 6c54 9bbd 3e5e 2e3d 7e7a a639
00000120: e072 0d3d ffa9 7ebe ed7d d6be 5961 4bbe
00000130: b830 44be 6445 b23e 416c efbe f3d7 1fbe
00000140: 0c32 c5bc 7734 af3d 4a48 1e3e 7a44 4b3e
00000150: 7540 953d e11b 7ebd d31a f33d 0ce1 ca3d
00000160: d27a 81be 4ab4 253d ca3b f43e 8eaa a73e
00000170: 0a37 23bf f52d 383d 96d5 7dbd a058 683d
00000180: 784a 02bd 5fcc 9fbb 8fb1 c73c 02bb 6fbe
00000190: 1d69 373e bebc af3d 924f 9fbe 3f2a d93d
000001a0: b589 81be 0d1e 44bd d89b 92bd 76e9 693e
000001b0: 0b58 813e 8ac6 4c3e 3b68 cd3d bbaa 0ebe
000001c0: 578f 133e fe0b 983c 9e1e ebbd 3a28 923e
000001d0: 3c7c a4bd a2a3 b0bd 4e34 16bf bd8b cdbd
000001e0: 1b90 383e 2abd 353e e59a 1dbe b1af 3b3e
000001f0: 33ea f63e 4662 23be 3a4c 9f3d 72fb 8a3e
00000200: d389 6f3d a49f 013f 8fdf 92bd d4e9 b63d
00000210: ca9a 08bd ef44 80bd cb57 623e 1ec1 9bbb
00000220: 8b2f 1c3e f5c6 953d eb83 b7bd b742 933d
00000230: 7b24 483e ec34 2d3c f0d1 b6bd 69e2 6f3e
00000240: 1fc1 d33d 20b7 4f3e 65ee aabd d307 b33e
00000250: 9e5b 2c3e 846b 09be 6d47 073e 1a76 093e
00000260: cdfe 55be 7e9c 423e 103b ecbb 0a74 38bd
00000270: 0f05 e23e 875c eebd 2905 00be f9ef 0e3e
00000280: 1b8c 44bd 81ce 0cbb 21df 4a3e 453d 583e
00000290: 14e9 b13a 74d2 f8bd a1c1 d53d a79b 3e3e
000002a0: 79f2 043e 16c3 a1bd 99c5 8b3d 71e0 a0bd
000002b0: e3e6 e5bd da37 453e d20a 9abe 82e8 483d
000002c0: 19cd 843e fb62 c93a 584b f1bd 79f0 a93d
000002d0: f64c 643d 8afe 09be 5f09 55bd 8a57 24be
000002e0: 0625 06be e60f 13be 77b6 3d3d 79e3 4f3e
000002f0: 350b 16be 9295 573e e1d2 90bd 94b8 443e
00000300: 8514 043c dd31 82bd 533d ae3e bb5d 8b3e
00000310: 3924 c33e 3aac e33e 6f9d 58be 310f 853e
00000320: acdd b2bd faf8 323e e01f 1c3d 8d2f 1bbc
00000330: 46e6 92ba 1297 dfbd a88f b53e 35db a33c
00000340: 856f cc3d 146f d63b ccbd c93c c835 a3be
00000350: 0bf1 0c3e d063 5fbd e17d fb3e 8c8e 323e
00000360: 2861 953e 0e20 983b bbe9 c2bc 4f0f 49be
00000370: aec7 58be 52ab ba3e 6f10 cdbd b3de 3fbe
00000380: 2293 ffbd 6698 91be cd20 bd3c 2597 e13d
00000390: 8366 9b3d 4ad4 543e 5cdb ab3d 8eaa 233e
000003a0: 8391 cfbd 04db 9dbd 42db bb3c 9565 1d3e
000003b0: cded 9c3d b7d7 e6bd a107 c53d 4978 05bd
000003c0: e463 45bd feb2 1cbe 4b2b 203e 6b61 3f3e
000003d0: 5fef 6cbe 6358 ff3d fa1b ac3d 214c d63d
000003e0: fe7c 803e 7b49 763d a537 99bc 0626 d43d
000003f0: 6d92 0bbe 5385 cd3d a653 50bd 91d0 6d3d

fc2.bias f4 [32]
-0.021885278 -0.059361346 -0.24685048 0.21447173 0.3293798 -0.08925442 0.12798674 0.0694497
-0.062873885 0.059538152 0.3531173 0.046932194 -0.15537259 0.06794258 -0.2047483 0.07473082
0.28999364 0.11737263 0.39901924 -0.2423076 0.16681351 -0.03629375 0.29268792 0.43646514
0.33041626 -0.0023639717 -0.08113941 -0.12624466 -0.1581467 0.21866854 0.3878721 -0.16380262
00000000: c148 b3bc e224 73bd 5fc6 7cbe 7a9e 5b3e
00000010: 78a4 a83e 05cb b6bd f50e 033e a53b 8e3d
00000020: 06c4 80bd 47de 733d cacb b43e f93b 403d
00000030: fe19 1fbe 7b25 8b3d 8aa9 51be 790c 993d
00000040: 0c7a 943e 1061 f03d 404c cc3e 7c1f 78be
00000050: 29d1 2a3e c1a8 14bd 31db 953e 5c78 df3e
00000060: 522c a93e ddec 1abb 6b2c a6bd 4846 01be
00000070: 35f1 21be a5ea 5f3e 2c97 c63e e0bb 27be

fc3.weight f4 [3, 32]
0.274932 -0.149486 0.23478922 -0.19357863 -0.17825885 -0.2817376 0.4318642 0.05981219
0.014401249 0.11081254 0.13164413 -0.5088665 -0.19652498 0.36301243 -0.119943656 -0.3109105
0.16529658 -0.09184031 -0.0133853825 -0.40611762 0.47952825 -0.21539634 -0.21761933 -0.09802614
0.31558293 -0.06073614 0.046614897 0.04867396 -0.11127973 0.18948452 0.24643674 0.007553884
-0.40762025 -0.008667442 1.1547792 -0.56316006 -0.26982278 -0.025898945 -0.2877805 0.16999382
0.13283554 0.2597627 -0.25078398 0.11038764 -0.09140404 -0.35447654 0.096939445 -0.086662635
-0.046313025 -0.019560652 -0.32249913 0.14024958 -0.14058696 0.22577797 -0.043185737 -0.4721747
-0.3270781 0.17420003 -0.100804366 0.11301814 -0.16840518 -0.18602067 -0.18575394 -0.12124076
-0.030285744 0.0174944 -0.50929147 0.3976153 0.384738 -0.24713182 -0.21383803 -0.09166173
0.17270556 0.3763263 0.07961369 -0.05896468 -0.40798664 0.07382066 -0.16432416 0.4569969
0.27054125 0.38975602 0.3348763 -0.2964942 0.22058968 -0.2715189 0.31612566 0.18347928
0.14088084 -0.34260204 -0.15798986 0.06656932 0.041080322 0.20414689 0.29782158 -0.2527822
00000000: e3c3 8c3e dc12 19be 966c 703e 7a39 46be
00000010: 7d89 36be e93f 90be 4e1d dd3e a0fd 743d
00000020: 37f3 6b3c aff1 e23d b8cd 063e 1345 02bf
00000030: d83d 49be c4dc b93e 05a5 f5bd a92f 9fbe
00000040: 8243 293e c616 bcbd 5d4e 5bbc a6ee cfbe
00000050: ba84 f53e dc90 5cbe 9ad7 5ebe eec1 c8bd
00000060: 1694 a13e 75c6 78bd 43ef 3e3d 595e 473d
00000070: a1e6 e3bd 3b08 423e ea59 7c3e 9286 f73b
00000080: 9ab3 d0be e301 0ebc cecf 933f 422b 10bf
00000090: 3626 8abe 062a d4bc f757 93be dc12 2e3e
000000a0: 0a06 083e 9eff 843e c266 80be ea12 e23d
000000b0: 0b32 bbbd f37d b5be 3088 c63d 2e7c b1bd
000000c0: bab2 3dbd a93d a0bc 9b1e a5be 969d 0f3e
000000d0: 07f6 0fbe 5732 673e 87e3 30bd e2c0 f1be
000000e0: c876 a7be 7e61 323e 8572 cebd 0e76 e73d
000000f0: 6872 2cbe 347c 3ebe 4836 3ebe 134d f8bd
00000100: cf19 f8bc 6a50 8f3c ed60 02bf 3c94 cb3e
00000110: 61fc c43e 2010 7dbe 5bf8 5abe 25b9 bbbd
00000120: bad9 303e d7ad c03e 810c a33d f384 71bd
00000130: a0e3 d0be 492f 973d 9844 28be 7ffb e93e
00000140: 6284 8a3e 1a8e c73e e874 ab3e 16ce 97be
00000150: 43e2 613e 8604 8bbe 39db a13e fee1 3b3e
00000160: 1143 103e 8969 afbe 18c8 21be 7f55 883d
00000170: d743 283d e20b 513e 127c 983e ab6c 81be

fc3.bias f4 [3]
0.123176605 -0.40127698 0.23154336
00000000: 0444 fc3d 2d74 cdbe b419 6d3e
