framework/vis_embedding_scripts/embedding_networks/embedding_model_withNormConstraints_MultiKeyNav_dim6.pt (torch, 7959 bytes, 6 tensors)

fc1.weight f4 [32, 7]
000000 5c 73 39 bb 6e 9f 4f 3e 1e 46 9f be d5 6a 8e be
       -0.002829752 0.20275661 -0.31108183 -0.2781588
000010 86 11 15 be aa 92 cf 3d 96 63 f5 bb 55 02 80 3d
       -0.14557466 0.10135396 -0.007488678 0.06250445
000020 55 47 2b be 73 0f 73 be c2 5a f6 bd 47 80 2d be
       -0.1672643 -0.23736362 -0.120290294 -0.16943465
000030 c6 07 31 bf 94 39 50 be 3d 60 ba bd 8b 1d 36 bd
       -0.69152486 -0.20334464 -0.09100387 -0.044461768
000040 eb 2a 0c bc c9 ac 31 3f b7 5e d1 bd 8f 01 be be
       -0.008555154 0.69404274 -0.102231435 -0.37110564
000050 25 7e d7 3e af 5c aa 3e b6 72 ba 3d 67 62 ab 3e
       0.42088428 0.33273837 0.091039106 0.33473513
000060 6b 2f 03 be 01 dd 0d be c0 7b 1f 3f 69 6c fe be
       -0.12811057 -0.13853838 0.622982 -0.49692085
000070 92 18 cc bd 4b 25 65 be bc f1 81 be 30 c0 32 3f
       -0.09965624 -0.22377507 -0.2537974 0.69824505
000080 1e de 92 be 0b d8 a7 be 36 7a 20 bf 3c 11 de be
       -0.28685087 -0.32782015 -0.6268648 -0.43372524
000090 fc 92 64 bf 28 ad cc 3e b6 33 b9 3e 04 6e 77 3e
       -0.8928678 0.39975858 0.36172265 0.24163061
0000a0 bf fe 9a be 0e d5 ff 3d 5f 25 a7 3d d7 bc 1f bf
       -0.3027248 0.12491809 0.08161425 -0.6239752
0000b0 4b cc ed be 20 2b 44 3e 2f f3 6a 3e ca 7d d7 3e
       -0.46444926 0.19157076 0.2294433 0.42088157
0000c0 2a 84 b5 bd 93 ee 08 3d 92 cb 8d 3e f1 41 a2 3e
       -0.08863099 0.033430647 0.27694374 0.31690934
0000d0 6e fd 58 3e db ea 8d 3b 3f e9 ad 3e 2e f7 a2 be
       0.21190426 0.0043309755 0.33967015 -0.31829208
0000e0 83 de 1f 3e f3 85 8e bd 2e 99 53 bf a9 eb 02 be
       0.15612225 -0.069591425 -0.8265561 -0.1278521
0000f0 13 db 09 3e d2 ec c2 3c 1c 89 30 bf 97 66 7f be
       0.13462476 0.023794565 -0.6895921 -0.24941479
000100 6a f8 03 3f 14 e5 42 be e9 57 66 be 1a 0b 50 be
       0.51550925 -0.19032699 -0.22494473 -0.20316735
000110 8c af 9e 3d f0 ef 7c 3e 6d 7d 6a be 30 f2 18 be
       0.07748327 0.24700904 -0.22899409 -0.14936137
000120 36 8e ec bb 6a 47 37 3f 20 df 84 3e ec ef b2 3e
       -0.0072191013 0.71593344 0.2595148 0.3494867
000130 c7 67 e0 3c b2 bd a1 be e2 f9 ce bd d9 85 37 bf
       0.027393235 -0.3159004 -0.10106255 -0.7168861
000140 94 9d 90 be 19 d8 04 3f aa bb bd 3e 78 5d 94 be
       -0.28245223 0.5189224 0.3705724 -0.2897756
000150 89 4b 7a 3d b1 bd f9 be b2 0d cd be b4 57 95 bc
       0.061107192 -0.48777536 -0.4004951 -0.018230297
000160 78 99 92 3d 5a 61 d2 be a5 a3 e9 3e 12 16 61 3e
       0.07158178 -0.41089898 0.45632663 0.21981075
000170 77 1a 25 bc cc ea 35 3e fd a6 24 bf aa 19 b0 be
       -0.0100771105 0.17765349 -0.64317304 -0.3439458
000180 36 9b ef 3d bc 92 2a 3f ae e5 f2 3d 97 1b a8 be
       0.11699526 0.6663015 0.11860214 -0.3283355
000190 4a 32 f0 3e 0a 6f 70 3e 30 b2 8b be 4e 83 d3 bd
       0.46913368 0.23479858 -0.27284384 -0.10327779
0001a0 1d 3a 3a bf 6f 2d 85 3e 26 a0 4b bf dd 98 66 be
       -0.72744924 0.26011226 -0.7954124 -0.2251925
0001b0 d8 a2 45 be 59 8a 7a 3d 47 8b 4a bf e6 e4 b5 3e
       -0.19300401 0.061167095 -0.7911877 0.35526198
0001c0 98 06 c8 bc 90 66 0a 3f 95 4c 19 3e 6e 9e 8c be
       -0.024417207 0.5406275 0.1497062 -0.27464622
0001d0 4f ac 59 bd db 67 4e 3e 27 5b 06 3e aa 3d 42 3e
       -0.053142842 0.20156805 0.1312071 0.18968835
0001e0 c3 15 9a 3d 26 92 4c 3e 81 e5 6a 3d dc 06 35 3e
       0.07523682 0.19977626 0.05734778 0.17678398
0001f0 44 33 00 bf f4 27 3e be ec c5 c1 bd bc 87 3c be
       -0.50078225 -0.18569928 -0.09461579 -0.18411154
000200 e2 65 07 be 84 9c 9e be 1c a8 a4 bd 74 76 a5 3d
       -0.13222459 -0.30978787 -0.08039877 0.08079234
000210 f5 23 7c be 97 ed ad 3d f7 f0 9e 3e 8a ef 27 be
       -0.24623092 0.08492582 0.31043217 -0.1639997
000220 1c 4d 2f bd bd 22 89 bd 3a 08 b1 3e f1 88 d2 3e
       -0.042798147 -0.06696079 0.3457659 0.41120103
000230 ce 62 15 3e f1 5e 21 bd 22 0d 06 3e 6b 4f e2 bc
       0.14588472 -0.039397184 0.13090947 -0.02762576
000240 9c 35 03 bf 73 1c 10 3c 5b 7f f1 3e a9 92 20 bb
       -0.51253676 0.008795845 0.47167477 -0.0024501479
000250 e8 5f 40 be 83 4b 94 be a2 1a b5 be a3 54 a3 be
       -0.18786585 -0.2896386 -0.35371882 -0.3190051
000260 95 02 9d bd ae 40 54 3e 93 bb 7b 3e 01 16 f4 be
       -0.07666508 0.20727798 0.24583273 -0.47673038
000270 9d 50 a5 3e 01 dd 20 bf f5 dc 83 3e 8f f9 15 be
       0.32288066 -0.62837225 0.25754514 -0.1464598
000280 05 3f 00 be b6 fb 97 bd 38 a7 ad be 32 17 a7 be
       -0.1252404 -0.07421057 -0.3391664 -0.32634884
000290 a5 40 72 bd b8 2a a0 3b 10 d2 2f be c7 cb 11 3e
       -0.05914368 0.004887905 -0.17169976 0.14237891
0002a0 b1 03 4a be a7 9e a2 be be e4 93 3e 84 f2 bf be
       -0.1972797 -0.31761667 0.28885454 -0.37489712
0002b0 ce 35 c9 3e 20 e0 04 3f 69 69 02 bf 53 16 87 3d
       0.39298862 0.5190449 -0.50942093 0.06596055
0002c0 5b 09 4a be b4 b1 53 3c 7b 2f 03 3e 7a a0 7e bf
       -0.19730131 0.012920786 0.12811081 -0.9946362
0002d0 8a f7 3c 3f e1 cf 92 3c f7 98 e5 3e 9a 3d c6 3e
       0.73815215 0.01792139 0.44843265 0.38718873
0002e0 59 6a 50 3e 11 d4 05 3f a4 88 9c be b7 42 c5 bd
       0.20353068 0.5227671 -0.30573 -0.096318655
0002f0 fd fe fd bd fa 2c 74 3d bf 06 ba 3e 76 e2 9e 3e
       -0.12402151 0.059613205 0.36333272 0.3103215
000300 47 41 a7 be ec 5c a5 be 98 32 aa be b3 2e 24 bf
       -0.3266699 -0.32297456 -0.33241725 -0.6413376
000310 9a b9 c3 be c5 b9 8e 3d e8 f0 d7 be 70 f8 97 bd
       -0.3822754 0.069690265 -0.42175984 -0.074204326
000320 d6 f2 0e be a3 0c 60 3e 3f bb f6 be 1f 66 37 be
       -0.13959822 0.2187982 -0.48189732 -0.1791005
000330 9d 65 9a be e0 51 bb 3e 5f ef 85 bd 32 97 00 3f
       -0.3015565 0.36585903 -0.06539797 0.50230706
000340 a3 62 a9 3e 6a 9f 9a 3e fb 63 38 bb 04 05 99 bd
       0.33083066 0.30199748 -0.0028135765 -0.0747166
000350 62 3d 42 3d 4b c1 b0 bd f7 0b 2e bb 3e 88 45 3d
       0.04742182 -0.08630618 -0.0026557425 0.048225634
000360 e1 5e 97 be e9 9c 66 3e 5c cf 20 3f b3 55 90 be
       -0.29564574 0.22520794 0.62816405 -0.28190383
000370 8e 68 3f 3d 82 f8 ec 3e f7 18 cf 3e 69 ec aa 3e
       0.04673057 0.46283346 0.40448734 0.33383492

fc1.bias f4 [32]
000000 57 b4 a7 be fe 85 1a 3f b7 db 72 be 45 ef 68 bd
       -0.32754776 0.60360706 -0.23716627 -0.05686881
000010 2a 76 11 3d 69 2d 12 3e c2 30 70 3e d6 e5 aa 3e
       0.03551308 0.14275135 0.234561 0.33378476
000020 5e ff 06 3f a8 80 b9 3e ce 3c 8a 3e 56 d1 00 be
       0.5273341 0.3623097 0.26999515 -0.12579855
000030 27 81 a7 3e 81 e6 65 bc fb 2f 1c 3e e6 0d a5 3e
       0.32715723 -0.014032007 0.15252678 0.32237166
000040 56 81 69 3e 2e 74 19 3f 91 2f f9 bd 5a 4d f7 3d
       0.22803244 0.599429 -0.12167276 0.120753005
000050 c0 1f 05 3f 49 26 bb be 05 29 e6 3e 33 06 a0 be
       0.5200157 -0.36552647 0.4495317 -0.3125473
000060 33 87 1c 3e 8f 07 bd 3d 29 b0 57 bd 77 50 8c 3e
       0.1528595 0.09229957 -0.052658234 0.2740514
000070 88 2c 0b 3f 9a 44 9f 3d e0 c7 65 be 7a 78 41 be
       0.54364824 0.077767566 -0.22439528 -0.18893614

fc2.weight f4 [32, 32]
000000 c1 6a 33 be e4 25 04 3f 05 d9 c8 be 69 41 8b be
       -0.17521192 0.51620317 -0.39228073 -0.2719834
000010 30 52 11 3f 73 e6 01 3f 4c 56 a1 bc 01 ec 65 3d
       0.56766033 0.5074226 -0.01969447 0.056133274
000020 60 1c 35 3f 16 21 cf 3d 9d 02 10 be 26 61 c9 bb
       0.7074642 0.101137325 -0.14063497 -0.006145614
000030 77 f4 9f 3e ea 02 5f 3e 37 c2 81 bd de 60 77 3e
       0.312412 0.21778455 -0.06335872 0.24158046
000040 25 60 84 be 62 b9 9b 3e 76 2b cb bd 93 3c d1 be
       -0.25854602 0.30414873 -0.09920399 -0.40866527
000050 75 d2 1b 3e aa 1c eb bd a0 0d f6 3e 88 71 4f 3d
       0.15217002 -0.114800766 0.4805727 0.05064538
000060 18 8b 27 be 84 3a 3d be b1 1d 56 be d6 cc 0f 3e
       -0.16361654 -0.18479353 -0.20909764 0.14042982
000070 14 64 43 3c b7 f4 82 3e 79 bd 72 bd 90 34 ac be
       0.011925716 0.25577328 -0.059262726 -0.33633852
000080 4a 94 25 bd 5c cd 00 bc 5f 7f dc bd aa 57 18 3d
       -0.040424623 -0.0078614615 -0.107664816 0.037192978
000090 b7 ed 64 3d a5 fc 6e bb b8 d8 22 bd 90 1a 05 be
       0.055890765 -0.0036466506 -0.03975746 -0.12998414
0000a0 af 5d fa 3d 85 78 1a be 19 b2 51 3d 3b 79 73 bd
       0.122249 -0.15085037 0.051195238 -0.059441786
0000b0 5c 4d c3 bd 33 06 29 3c 42 10 bc bd b8 d4 26 3d
       -0.095362395 0.010316419 -0.091827884 0.04073021
0000c0 89 7a 3b 3c 38 ec 1d be 9b 1d f1 3c 23 1f 5b 3d
       0.011442789 -0.15422142 0.029433062 0.05349649
0000d0 c7 02 4a 3d b4 4a b6 bc 3f 22 29 be 2a 3d df bc
       0.049319055 -0.022252418 -0.1651697 -0.027250845
0000e0 45 7a 7b 3d 7d 41 a3 bd ea 47 36 3d 59 c1 c3 3d
       0.061395902 -0.07971475 0.044502176 0.095583625
0000f0 b9 46 e4 bd c1 dc 5f bc df b3 95 3d de d8 29 bc
       -0.11146302 -0.013663472 0.07309698 -0.010366647
000100 dd ee 71 3c 53 7d 8c 3e 25 f3 cc bd 7a 03 aa bd
       0.014766422 0.27439365 -0.10007314 -0.08301444
000110 cc 60 6a 3f 31 f7 69 3e 9c 38 0b 3f 05 50 8b bb
       0.9155395 0.22848202 0.54383254 -0.0042514824
000120 ec 4d dc 3c c9 7b 16 3e cd e9 1b be b0 34 a8 be
       0.026892625 0.14695658 -0.15225907 -0.32852697
000130 69 09 bf bd 68 1e e7 3e 52 bc d2 3e 59 26 aa bc
       -0.09327967 0.45140386 0.41159302 -0.020770239
000140 60 64 e8 3d 59 53 0f 3e 4a 48 1e 3e 3c 05 b0 3e
       0.1134727 0.13996638 0.15457264 0.34378994
000150 cd a2 39 3e e1 1b 7e bd a0 6f 50 bd 0c e1 ca 3d
       0.1812851 -0.062038306 -0.050887704 0.099062055
000160 86 e4 5c 3d d8 d0 43 3c f3 1c 7d 3e 73 04 d1 3e
       0.053928874 0.011951648 0.24718075 0.40823707
000170 2e c1 38 bf ae 83 f0 3c 96 d5 7d bd 3b 97 75 3d
       -0.7216977 0.029359665 -0.06197127 0.059958678
000180 78 4a 02 bd 8a 2c 20 3d b1 b3 fb bd 01 25 e9 3d
       -0.0318093 0.039104976 -0.12290133 0.11384011
000190 8b d1 10 bd a8 1f 1b 3e 2d e9 72 3d c1 5c 1c 3e
       -0.035356086 0.15148795 0.059304405 0.15269758
0001a0 66 92 90 3e da 65 4d be 7c 8b 80 bd 3a 41 df 3d
       0.28236693 -0.20058385 -0.062766045 0.10901113
0001b0 dc 87 9e 3e ea 11 4d 3e 4a ef 50 be ea 51 b7 be
       0.30963027 0.20026365 -0.20403782 -0.35804683
0001c0 38 ab be bd a2 25 df 3c 9e 1e eb bd 7f c0 13 3e
       -0.09310001 0.027239624 -0.11480449 0.144289
0001d0 2d a8 c7 bd a2 a3 b0 bd 9e 8f 10 3d bd 8b cd bd
       -0.09748874 -0.086249605 0.035293214 -0.100364186
0001e0 37 dc e9 ba fd 66 06 3f 23 5a dd 3d 20 0e b2 bd
       -0.0017842118 0.525009 0.10808208 -0.086941004
0001f0 bf 6c e5 3e 1e 3c bc bd 3a 4c 9f 3d 87 d3 53 3e
       0.4480953 -0.09191154 0.07778211 0.2068616
000200 d3 89 6f 3d 81 32 72 be 7e c0 49 bf cb 96 5e bd
       0.05848105 -0.23652078 -0.78809345 -0.054343026
000210 40 4a 32 bf a8 28 6d be 78 ec 48 be b0 81 3a be
       -0.69644547 -0.2316004 -0.19621456 -0.18213534
000220 b3 9d 8f bf 30 87 1c 3e f2 4e b6 be e4 51 3a bf
       -1.1220001 0.15285945 -0.35607105 -0.72781205
000230 5b 2c 47 3f 68 08 8d 3e 63 fa 47 bf 72 4a 17 3f
       0.77802056 0.27545476 -0.78116435 0.5909797
000240 e4 84 c1 3e bb 59 28 be 65 ee aa bd 6d b3 a9 3e
       0.377967 -0.1644048 -0.083462514 0.33144704
000250 11 4c 03 3e 84 6b 09 be 6d 9c 9f 3e 1a 76 09 3e
       0.12821986 -0.1341992 0.3117403 0.13423958
000260 20 8b 7e bc 9f 6b 2f 3e a0 2c 0e bf 52 e8 fe bd
       -0.0155361 0.17130898 -0.5553684 -0.12446655
000270 a0 fa d0 3e 64 2c ad 3e 29 05 00 be 78 b0 01 be
       0.40816212 0.3382293 -0.12501968 -0.12664974
000280 1b 8c 44 bd 84 4b 94 37 3c a1 51 3e 2a 93 68 3e
       -0.047985177 1.767814e-05 0.20471662 0.22712389
000290 c2 29 fb 3d 1d 7f 4c 3e 32 72 20 3e d8 74 08 3e
       0.12263824 0.19970365 0.15668562 0.13325822
0002a0 ff 2e a3 be df 9b 89 3e 2a b5 ca 3d 52 cb a5 be
       -0.31871793 0.26876733 0.098978356 -0.32381684
0002b0 86 d2 66 be 82 22 8b 3e 35 27 59 3e 96 a8 a4 3e
       -0.22541246 0.27174765 0.21206363 0.3215987
0002c0 f2 9e 82 3e 01 c8 83 bd 58 4b f1 bd 59 4f 1d 3e
       0.2551189 -0.06434632 -0.11781949 0.153623
0002d0 42 cc 9b 3e 8a fe 09 be fb 5a 4c 3e 8a 57 24 be
       0.30429274 -0.13476005 0.19956581 -0.16049019
0002e0 e1 2a 5b bd ec 24 44 3e 5a e3 b2 bd fb a7 c9 3e
       -0.05350769 0.1915471 -0.0873477 0.3938597
0002f0 a0 9a e7 be 64 02 87 3e e1 d2 90 bd 2a 5f 04 be
       -0.45235157 0.2636901 -0.07071472 -0.12926927
000300 85 14 04 3c 00 ef 89 3c 7c b0 82 3e 7c 13 7d 3d
       0.008061533 0.016837597 0.25525272 0.06178616
000310 a7 2c 58 3e 66 70 87 3e 04 a6 bd be b1 af 24 3e
       0.21110784 0.2645294 -0.37040722 0.16082646
000320 00 41 12 3e 37 ec 20 3e b2 ff 72 be d6 3e 04 3e
       0.14282608 0.15715109 -0.23730353 0.12914595
000330 27 7f f6 be d3 7d c9 be 3c db 0d 3e a1 41 53 bf
       -0.48143885 -0.3935381 0.13853163 -0.82522017
000340 25 b7 03 3d e3 5b 98 3e cc bd c9 3c 04 ac a5 be
       0.032157082 0.29757604 0.024626635 -0.323578
000350 ae 72 72 be d0 63 5f bd 81 66 d4 3e 8c 8e 32 3e
       -0.2367656 -0.054538548 0.41484454 0.1743719
000360 fc e9 c9 3e 88 25 dc 3d 20 cf 10 3e cb 53 8c bd
       0.39436328 0.10749346 0.14141512 -0.0685192
000370 04 20 09 be 95 ee 8c bd 6f 10 cd bd 69 9c 3f 3d
       -0.13391119 -0.068814434 -0.100129 0.046780024
000380 22 93 ff bd c3 00 bc be 52 55 54 3e 61 52 61 3e
       -0.12479235 -0.3671933 0.20735672 0.22004081
000390 1f 73 99 bf fe f5 db 3c ee 96 c3 3e 83 52 69 3d
       -1.1988257 0.026850697 0.38201088 0.056963455
0003a0 3b a6 94 bc c7 61 a4 bd e0 24 01 3d 51 a9 72 3e
       -0.018145671 -0.08026462 0.031529307 0.23697402
0003b0 be eb 80 be e9 e2 57 be 01 3b 9a bc db e8 4f bf
       -0.25179857 -0.21082653 -0.018826963 -0.81214684
0003c0 38 b8 5a be dc 2f 33 be 4b 2b 20 3e 2c f5 a1 3e
       -0.21359336 -0.17498726 0.15641515 0.31632364
0003d0 88 4e 05 be 63 58 ff 3d 97 97 32 3d 21 4c d6 3d
       -0.13018239 0.1246803 0.0436016 0.10463739
0003e0 86 a5 cc 3e e1 ab d2 be 09 e7 3f 3b ee f0 0c 3e
       0.39970034 -0.41146758 0.0029281995 0.13763782
0003f0 96 b6 8a be a9 7e 8b 3d a6 53 50 bd 92 c9 99 3e
       -0.27092427 0.06811268 -0.050861023 0.30036598

fc2.bias f4 [32]
000000 12 27 12 3d 54 3f 26 bd 17 02 5a 3d 8d 9c 44 3e
       0.03568179 -0.04058774 0.05322465 0.19200344
000010 35 5a 37 3d bf 52 23 3e 98 f4 bc 3c 14 a3 cb 3d
       0.044763763 0.15949534 0.02306585 0.09943214
000020 70 69 97 bd ae 7c fb bd 8f c6 55 3e 9b a3 8c 3e
       -0.073931575 -0.1227964 0.20876525 0.2746857
000030 56 45 f4 bc 2d a0 9d bb e0 5d 18 be b6 05 03 3b
       -0.029818218 -0.004810354 -0.1487956 0.0019992418
000040 98 97 55 3e 32 31 95 3d 38 18 19 3e a9 e2 ca bd
       0.2085861 0.07284774 0.14950645 -0.09906513
000050 fa 94 b6 3d ff a4 72 3e 19 72 2a 3e 60 5d 52 3e
       0.08915134 0.23695754 0.16645087 0.20543432
000060 af 1f 8c 3e bf e1 1d 3d 6b 2c a6 bd 48 46 01 be
       0.27367923 0.038545366 -0.08113941 -0.12624466
000070 35 f1 21 be fe d0 3a 3e 56 1e b8 3e 51 87 23 3e
       -0.1581467 0.18243787 0.35960644 0.15969588

fc3.weight f4 [6, 32]
000000 c9 3b 20 be e3 4e f7 bd 53 67 54 be 47 7c 97 3e
       -0.15647806 -0.12075593 -0.2074254 0.29587004
000010 b9 20 3d bf c8 9b 6c be df f7 c9 bd 12 40 80 be
       -0.73878056 -0.23106301 -0.09861731 -0.25048882
000020 4a e5 a5 3c 4f 6f 01 3d 0e 51 e4 3b 59 87 0b 3d
       0.020250935 0.031600293 0.0069676703 0.034064624
000030 fc b8 e2 bd 25 0b b9 bc 1d 86 30 3c c2 4a ac 3e
       -0.11070439 -0.022588322 0.010774163 0.33650786
000040 7d 56 31 3e c1 0a 74 be e6 2f 50 be 45 1f 5f bf
       0.17318149 -0.23832227 -0.20330772 -0.8715709
000050 63 85 d0 3e 1c 35 9c 3e e6 4f cd be e6 4b 18 3f
       0.40726766 0.3050927 -0.4010002 0.5949081
000060 0e 62 a6 3e df 59 86 bd 43 ef 3e 3d 59 5e 47 3d
       0.32496685 -0.0656011 0.046614897 0.04867396
000070 a1 e6 e3 bd 76 8d 85 3e 68 c3 80 bc 6d 72 b1 3e
       -0.11127973 0.2608449 -0.015718177 0.34657612
000080 b4 9f 98 3d 35 ff 1a bd 03 a0 c9 3e fd e3 90 be
       0.07452336 -0.03784104 0.39379892 -0.2829894
000090 55 ac 37 3e 22 44 90 3e 1e e7 71 3e f1 87 09 3e
       0.17936833 0.2817698 0.2362332 0.13430764
0000a0 51 6c fb 3d d3 68 28 3e 73 ca 3e be f3 d7 b7 3e
       0.12276519 0.16446237 -0.18631916 0.35906944
0000b0 c6 2a a8 bc 70 ee 2b bd 85 26 5c 3e af 41 5a be
       -0.020528208 -0.04197544 0.21499069 -0.21314119
0000c0 a3 6e 1a be 9d ef 74 3f 18 e2 57 bf 41 c4 0d 3f
       -0.15081267 0.9567812 -0.84329367 0.55377585
0000d0 8c 25 9c 3e 99 2e a1 3e 6e 3c a2 3e fc 67 b1 bf
       0.30497396 0.31480864 0.3168673 -1.3859859
0000e0 be 41 f3 be b4 e7 21 3f 85 72 ce bd 0e 76 e7 3d
       -0.47511095 0.63244176 -0.100804366 0.11301814
0000f0 68 72 2c be 48 50 04 be d9 b5 f2 3d 44 87 bd bd
       -0.16840518 -0.1292125 0.11851091 -0.092543155
000100 3e 9c a6 3e 14 1f 37 3d bd 3c 66 3d 25 1a 1d be
       0.32541078 0.044707373 0.05621027 -0.15342005
000110 b0 95 d0 3e 59 ca 9f be c0 b7 df be 09 b8 06 3f
       0.40739202 -0.31209067 -0.43694878 0.52624565
000120 b3 e0 04 3e b3 f5 1a 3e 17 37 db 3d 4c 2e 05 bf
       0.12976341 0.1513279 0.10703867 -0.5202377
000130 6c 0c 62 be 30 f5 01 3f ae 63 c7 bc 1a 29 61 3e
       -0.22075051 0.5076475 -0.024339523 0.21988335
000140 04 e9 c0 3e dc aa 2a bd 3a b2 2b 3f 45 58 3b 3b
       0.37677777 -0.04166685 0.6706883 0.0028586548
000150 56 b1 1a be f2 10 ab be 63 e1 ce 3e 89 eb 07 3e
       -0.15106711 -0.33411366 0.4040633 0.13273443
000160 de e9 9e be 14 65 3a bc 18 c8 21 be 7f 55 88 3d
       -0.31037802 -0.011376638 -0.15798986 0.06656932
000170 d7 43 28 3d cb 23 8a bc 87 38 dd 3e 83 b6 a3 be
       0.041080322 -0.01686277 0.4320719 -0.31975183
000180 ee 9a a1 be 88 58 cf bd 00 bc 59 3e 94 f8 a0 3d
       -0.31563514 -0.10124308 0.21263123 0.078599125
000190 3c 03 25 3f d7 34 94 3e 82 d5 be 3e b5 42 67 be
       0.6445806 0.28946564 0.3727227 -0.2258404
0001a0 0b df 04 3e 05 dd 34 be 05 83 98 be 0f 56 c3 3d
       0.12975709 -0.17662437 -0.2978746 0.09537899
0001b0 f0 9d 27 bd 0a 6c a0 be f3 6d a8 be 61 18 79 be
       -0.040922105 -0.31332427 -0.32896385 -0.24325706
0001c0 d1 94 0c bf 3d 46 57 be 8e 54 88 3e e9 df 36 3f
       -0.54914576 -0.21022888 0.2662701 0.7143541
0001d0 9e 7c ac be f9 cf b6 be 23 57 2b be 52 cc e1 bc
       -0.33688825 -0.35705546 -0.16732459 -0.027563248
0001e0 fe 3e b0 3e a0 50 9a be 64 00 c5 bd c2 21 c1 bd
       0.3442306 -0.30139637 -0.09619215 -0.09430267
0001f0 d2 ba 7a bc 4e 95 a9 be b8 a1 16 bf 96 07 6d 3e
       -0.0153033305 -0.33121723 -0.58840513 0.23147425
000200 54 ec d6 3d 03 f1 ae bc 99 93 88 be 63 4b 8c be
       0.10494295 -0.021355158 -0.26675108 -0.27401266
000210 d2 db a9 be 07 26 3b 3e bf 8f 10 3f b2 db be 3e
       -0.33175522 0.18276225 0.5646934 0.3727699
000220 4b a2 9b 3b a4 34 34 be 27 8b 36 3f cf 12 8b 3e
       0.0047495714 -0.17598206 0.7130608 0.27162787
000230 11 fd a6 3e a4 df 3c be d2 be c6 3e 8c 19 59 bf
       0.3261495 -0.18444687 0.3881746 -0.84804606
000240 a7 43 a4 be 26 6b 8e bc 49 c9 12 be 46 14 ed bd
       -0.32082865 -0.017385077 -0.14334597 -0.115761325
000250 a6 f7 a3 be b5 9a 6b 3d b3 d0 36 be 4c 8e 46 bd
       -0.32024878 0.057520587 -0.1785305 -0.04847555
000260 d8 50 84 bd 43 24 44 bf 33 1b d3 3d 0a 7f c1 3d
       -0.06460732 -0.7661783 0.10307922 0.09448059
000270 d5 93 29 3e eb bf 0e be 20 58 61 3e 88 1c fb 3d
       0.165603 -0.13940398 0.22006273 0.12261301
000280 09 b8 94 3f 69 57 1b 3e 65 c0 92 be 20 60 08 be
       1.1618663 0.15170063 -0.2866241 -0.13317919
000290 d6 3c 6f be d2 64 33 be c8 99 8d bd 62 25 c8 3d
       -0.23363051 -0.17518929 -0.06914097 0.09772755
0002a0 2a 96 0a 3e e0 2c 06 3e 53 3f 94 3c 5c 9c 8c be
       0.13533846 0.13103056 0.018096602 -0.27463043
0002b0 61 c0 97 3e a1 5b 96 bc 37 d7 65 3e 96 d7 14 bf
       0.2963896 -0.018354239 0.22445379 -0.5814146
0002c0 80 ef 8c 3f 93 23 c9 3e c5 b9 af 3e b1 b1 b8 3d
       1.101059 0.39284953 0.34321418 0.09018267
0002d0 90 87 5c be a1 03 f7 be d8 fd ba be 95 5c c0 3e
       -0.21536088 -0.48244956 -0.36521792 0.37570634
0002e0 79 25 36 bd ef 4f 1a bf 6d 9e 24 3e 6a 89 7a bb
       -0.04446933 -0.6027822 0.1607606 -0.0038228878
0002f0 7f 06 12 3e 58 05 cf be 3a a3 41 3f dd 47 15 be
       0.1426029 -0.40433764 0.7563969 -0.14578195

fc3.bias f4 [6]
000000 75 45 a5 bc 73 05 c6 bd 0a ac 76 be ac 03 53 3e
       -0.020174721 -0.09669008 -0.24089065 0.2060687
000010 91 b1 59 3d 12 3c ef bd
       0.053147856 -0.116813794
