framework/vis_embedding_scripts/embedding_networks/embedding_model_withoutNormConstraints_MultiKeyNav_maskAllKeys_dim1.pt (torch, 7319 bytes, 5 tensors)

fc1.weight f4 [32, 7]
0	0xbb39735c	-0.002829752
1	0x3e4f9f6e	0.20275661
2	0xbe9f461e	-0.31108183
3	0xbe8e6ad5	-0.2781588
4	0xbe151186	-0.14557466
5	0x3dcf92aa	0.10135396
6	0xbbf56396	-0.007488678
7	0x3e31e747	0.17373382
8	0x3dab2074	0.08355799
9	0x3e608a3b	0.2192773
10	0xbe78cbd9	-0.24296512
11	0xbe42d4df	-0.19026516
12	0xbf171a56	-0.5902456
13	0xbef66eb8	-0.48131347
14	0xbe9591a3	-0.29212674
15	0x3e95b0a4	0.2923633
16	0x3e06dd36	0.13170323
17	0x3eababcc	0.33529508
18	0xbe8a3099	-0.26990202
19	0xbf3b00be	-0.7304801
20	0x3e112c76	0.14177117
21	0x3eddddf3	0.43333396
22	0x3dcfd310	0.10147679
23	0x3e75b6ee	0.23995563
24	0x3d5ad50d	0.053425837
25	0xbdbc42d4	-0.09192434
26	0x3ec3c487	0.38235876
27	0xbedee16e	-0.43531364
28	0x3cbbfd76	0.022948008
29	0x3c4e62f0	0.012596831
30	0xbe2c0a56	-0.16800818
31	0x3f0b2949	0.5435987
32	0x3e20ea52	0.15714386
33	0xbe3dd972	-0.1853998
34	0xbf19f90e	-0.6014565
35	0xbec28481	-0.37991717
36	0xbe2c5b1b	-0.16831629
37	0x3ef49f97	0.47778007
38	0x3db355cf	0.08756601
39	0x3e428403	0.18995671
40	0x3dacc75c	0.08436462
41	0xbe9f3686	-0.31096286
42	0x3da018f9	0.07817263
43	0xbed8135e	-0.42202276
44	0xbee02d94	-0.43784773
45	0xbe63b49c	-0.22236866
46	0x3e7be188	0.24597752
47	0x3e8e4ec4	0.27794468
48	0xbe828500	-0.25492096
49	0x3d8cc800	0.068740845
50	0x3e48e6da	0.19619313
51	0x3e99cc17	0.3003852
52	0x3e804c8f	0.2505841
53	0x3d9f1ea1	0.07769514
54	0x3e383853	0.17990236
55	0xbece2579	-0.40262964
56	0x3e83d842	0.2575093
57	0x3d5fb705	0.0546179
58	0xbf398009	-0.7246099
59	0xbe9844c5	-0.29739967
60	0x3eaa37ba	0.3324564
61	0x3ad2df6e	0.0016088316
62	0xbeacf819	-0.33783033
63	0xbd824288	-0.06360346
64	0x3dfe68b9	0.12422318
65	0xbc42f6b7	-0.011899642
66	0xbe4f9f3a	-0.20275584
67	0x3cc1325a	0.02358358
68	0x3dab7791	0.08372415
69	0x3f0e513e	0.55592716
70	0xbe40c4c0	-0.18825054
71	0xbdb39ced	-0.087701656
72	0x3e1a1041	0.15045263
73	0x3edc7bf3	0.43063316
74	0x3ee01b52	0.43770844
75	0x3eb3f90d	0.35150948
76	0x3d875159	0.06607313
77	0xbe6bb3d4	-0.23017818
78	0x3d96efc8	0.073699534
79	0xbef68cd0	-0.48154306
80	0xbe89d1c7	-0.2691786
81	0x3ee4feab	0.44725546
82	0x3eb2557c	0.34830844
83	0xbe410248	-0.18848526
84	0x3ddcfd41	0.10790492
85	0xbe356d72	-0.17717531
86	0xbe167ad1	-0.14695288
87	0x3d04e93f	0.032449003
88	0x3e525044	0.20538431
89	0xbea6164f	-0.32438895
90	0x3e5bdbc9	0.2147056
91	0x3dcada60	0.09904933
92	0x3e31f7d9	0.17379703
93	0x3e1a6f72	0.15081576
94	0xbec45a53	-0.38350162
95	0xbec4d5ce	-0.3844437
96	0x3ee48b82	0.44637686
97	0x3ee76e3d	0.45201293
98	0xbe16b626	-0.14717922
99	0xbed31b9f	-0.4123201
100	0x3ee6cb8d	0.45077172
101	0x3e891bd6	0.2677905
102	0xbea1c414	-0.31594908
103	0xbdd23445	-0.10263876
104	0xbe94270c	-0.2893604
105	0xbe10bc05	-0.14134224
106	0xbec72266	-0.3889343
107	0x3e19c506	0.15016565
108	0xbe36cf1f	-0.17852448
109	0x3e2e0dfd	0.16997524
110	0xbf0c0ab6	-0.54703844
111	0x3eb56943	0.3543187
112	0xbeed2b80	-0.4632225
113	0x3f136b84	0.5758593
114	0x3ef9f02a	0.48816043
115	0xbe855c2c	-0.26046884
116	0x3d74dd1e	0.059781186
117	0xbe34e89e	-0.17666861
118	0x3db02792	0.086012974
119	0x3e21404e	0.15747187
120	0x3e83be6a	0.25731212
121	0x3bb8ef50	0.0056437626
122	0xbd810ff0	-0.06301868
123	0x3e76f37a	0.24116316
124	0xbef5e48a	-0.48025924
125	0xbf00d30d	-0.5032204
126	0xbdc1c5ec	-0.09461579
127	0xbe3c87bc	-0.18411154
128	0xbe0765e2	-0.13222459
129	0xbe9e9c84	-0.30978787
130	0xbda4a81c	-0.08039877
131	0x3da57674	0.08079234
132	0xbe7c23f5	-0.24623092
133	0xbd1c5389	-0.038165603
134	0x3ea26203	0.31715402
135	0xbc29ba76	-0.010359397
136	0x3e5f24a6	0.21791324
137	0x3cb8a4ff	0.022539614
138	0xbe37d15d	-0.1795096
139	0x3e5465d3	0.20741968
140	0x3dced53f	0.10099267
141	0x3e4fc6fc	0.2029075
142	0x3ec6c0e7	0.38819048
143	0xbd90d01f	-0.07070946
144	0xbec551a4	-0.3853885
145	0xbe801ff0	-0.25024366
146	0x3ecd3e59	0.4008663
147	0xbb2092a9	-0.0024501479
148	0xbe405fe8	-0.18786585
149	0xbe944b83	-0.2896386
150	0xbeb51aa2	-0.35371882
151	0xbea354a3	-0.3190051
152	0xbd9d0295	-0.07666508
153	0x3e5440ae	0.20727798
154	0x3e734c9f	0.23759697
155	0xbf2e138b	-0.6799857
156	0x3e316edd	0.17327447
157	0xbe45e37c	-0.1932506
158	0xbd7bd2e2	-0.06148041
159	0xbf054e1d	-0.52072316
160	0x3e09e70d	0.13467045
161	0xbd97fbb6	-0.07421057
162	0xbeada738	-0.3391664
163	0xbea71732	-0.32634884
164	0xbd7240a5	-0.05914368
165	0x3ba02ab8	0.004887905
166	0xbe2fd210	-0.17169976
167	0x3e11cbc7	0.14237891
168	0xbea4422c	-0.32081735
169	0xbbc05fb5	-0.005870784
170	0x3e65fb17	0.22459064
171	0xbe6d8d2e	-0.23198387
172	0x3ed902b8	0.42384887
173	0x3d825427	0.06363707
174	0xbf28f492	-0.65998185
175	0x3ef314c5	0.47476783
176	0x3ceb4842	0.028720979
177	0xbe241a04	-0.16025549
178	0x3f02550a	0.5091101
179	0xbc9eda70	-0.019391268
180	0x3cbae4f6	0.022814255
181	0x3d9c634e	0.07636128
182	0x3eccf3bf	0.40029714
183	0x3e3cbdbb	0.18431751
184	0x3e930091	0.2871137
185	0xbdcbb939	-0.09947438
186	0x3cf0ca91	0.029393466
187	0xbd98337b	-0.07431694
188	0xbec93385	-0.3929712
189	0x3e370a7e	0.17875096
190	0x3ebbe456	0.36697644
191	0x3ed7c093	0.4213911
192	0xbe87825f	-0.26466653
193	0xbe873c13	-0.2641302
194	0xbeb52c77	-0.35385486
195	0xbe6773c5	-0.22602756
196	0x3a9f019f	0.001213122
197	0x3e63d7d2	0.22250298
198	0xbebd19be	-0.36933702
199	0x3e1e7370	0.15473723
200	0xbe7f596a	-0.24936453
201	0x3ec9cca1	0.39413932
202	0xbef5a06e	-0.4797396
203	0xbda54775	-0.0807027
204	0xbeb5b14f	-0.35486838
205	0x3e1c1dfd	0.15245815
206	0xbcbffcf1	-0.023436042
207	0x3ef110ee	0.4708323
208	0x3e9707ed	0.29498234
209	0x3d2e5960	0.042565703
210	0xbb3863fb	-0.0028135765
211	0xbd990504	-0.0747166
212	0x3d423d62	0.04742182
213	0xbdb0c14b	-0.08630618
214	0xbb2e0bf7	-0.0026557425
215	0x3d45883e	0.048225634
216	0xbe975ee1	-0.29564574
217	0x3926947a	0.00015886305
218	0x3ea9ed4c	0.33188856
219	0xbebb90c8	-0.36633897
220	0x3e9654ea	0.2936166
221	0x3f00e8d6	0.5035528
222	0x3e11189f	0.14169548
223	0x3da07b90	0.07836068

fc1.bias f4 [32]
0	0xbea7b457	-0.32754776
1	0x3dc3560f	0.09537899
2	0xbe138e45	-0.1440974
3	0xbddd139e	-0.10794757
4	0x3cb8d6b1	0.02256331
5	0xbdf8eec8	-0.12154919
6	0xbe0d4903	-0.13797383
7	0x3e613816	0.21994051
8	0x3d550ced	0.05201428
9	0x3e93624e	0.28785938
10	0x3e71e664	0.23623043
11	0xbe78e700	-0.2430687
12	0x3e544584	0.20729643
13	0xbe727e23	-0.2368093
14	0xbe1bebdb	-0.1522669
15	0x3e8b918f	0.2725949
16	0x3d90ca6a	0.070698574
17	0x3e5df543	0.21675591
18	0xbdf92f91	-0.12167276
19	0xbd9a9b89	-0.07549197
20	0x3e54be46	0.20775709
21	0xbebb2649	-0.36552647
22	0x3ea8bc19	0.32956007
23	0xbea00633	-0.3125473
24	0xbd8812b7	-0.066441946
25	0xbdbff26a	-0.09372409
26	0xbe5ff1ef	-0.21869634
27	0xbdb8cacf	-0.09023058
28	0x3e695e90	0.22789979
29	0xbea1e2d4	-0.3161837
30	0xbe65c7e0	-0.22439528
31	0xbdd238af	-0.10264718

fc2.weight f4 [32, 32]
0	0xbe336ac1	-0.17521192
1	0x3e864134	0.2622162
2	0x3f159090	0.5842371
3	0x3dab3a65	0.08360747
4	0xbf45cdbd	-0.77267057
5	0x3e049886	0.12948808
6	0xbe875291	-0.2643018
7	0x3e5a6d8d	0.21330853
8	0xbeb6ba1a	-0.3568886
9	0x3c086b76	0.008326402
10	0x3da3b147	0.07992797
11	0xbeec9de4	-0.4621421
12	0x3e48c7d5	0.1960748
13	0xbefa3812	-0.48870903
14	0xbe9bc0e7	-0.3042061
15	0xbf335c6f	-0.7006292
16	0xbe903cf7	-0.28171512
17	0xbcfc751e	-0.030817565
18	0xbdcb2b76	-0.09920399
19	0x3b308f40	0.0026940852
20	0x3db19aff	0.08672141
21	0xbdeb1caa	-0.114800766
22	0xbf065010	-0.52465916
23	0x3d4f7188	0.05064538
24	0x3e6b7b78	0.22996318
25	0x3e2071a6	0.15668353
26	0x3db88ad7	0.090108566
27	0x3f226177	0.6342997
28	0xbf0498de	-0.51795757
29	0x3eba449e	0.36380476
30	0xbd72bd79	-0.059262726
31	0x3e85a3e8	0.26101613
32	0xbd25944a	-0.040424623
33	0xbcf0ab55	-0.029378572
34	0xbe146f6d	-0.1449563
35	0x3d680e0c	0.05665402
36	0x3dc521c1	0.09625579
37	0x3cf4de2a	0.029891092
38	0xbd22d8b8	-0.03975746
39	0xbe13491a	-0.14383355
40	0x3dfa5daf	0.122249
41	0xbe195fdf	-0.14977978
42	0x3d5e31f5	0.05424686
43	0xbdda6d74	-0.10665408
44	0xbdff5d48	-0.12468964
45	0x3cb096a5	0.021556208
46	0xbd70fdb1	-0.05883569
47	0x3b0855d0	0.0020803101
48	0x3b75aaf6	0.0037485934
49	0xbe4a56aa	-0.19759622
50	0x3cf11d9b	0.029433062
51	0x3d4b9d01	0.049710277
52	0x3d2092ed	0.03920262
53	0xbcb64ab4	-0.022252418
54	0xbe418a40	-0.18900394
55	0xbcdf3d2a	-0.027250845
56	0x3dba6057	0.091004066
57	0xbdd0c9d5	-0.101947464
58	0x3d3b0d33	0.045666885
59	0x3d2d2b87	0.04227784
60	0xbdcce7c3	-0.100051425
61	0xbccefdf3	-0.025267577
62	0x3d95b3df	0.07309698
63	0xbbae0e26	-0.005311745
64	0x3c71eedd	0.014766422
65	0xbcac45af	-0.021029321
66	0xbeee7c16	-0.46579045
67	0xbd9e5f02	-0.07732965
68	0x3e7991dd	0.24372049
69	0x3e6d5bae	0.23179504
70	0x3e8aff6e	0.27148002
71	0x3bfe1cfa	0.007754919
72	0x3e3f3857	0.18673836
73	0xbd8b4779	-0.06800742
74	0xbe0befa1	-0.1366563
75	0xbda9c077	-0.08288663
76	0x3e82db94	0.2555815
77	0x3e5add1c	0.21373409
78	0x3cb8f23b	0.022576442
79	0x3e2a7e91	0.16649844
80	0x3d8e8740	0.06959391
81	0x3e59684d	0.21231194
82	0x3e1e484a	0.15457264
83	0x3e30ac4f	0.1725323
84	0xbd94bd74	-0.07262698
85	0xbd7e1be1	-0.062038306
86	0x3d92d83b	0.07170149
87	0x3dcae10c	0.099062055
88	0xbddbfd51	-0.10741676
89	0x3e1e1eb1	0.15441395
90	0xbc89194e	-0.016735699
91	0x3e4b000d	0.19824238
92	0xbdd77467	-0.10520249
93	0x3e8fae16	0.28062505
94	0xbd7dd596	-0.06197127
95	0x3e115780	0.14193535
96	0xbd024a78	-0.0318093
97	0x3da69d8b	0.08135518
98	0xbe8a040a	-0.26956207
99	0x3dbeffa0	0.093261
100	0x3dda541b	0.10660573
101	0xbd8fd90c	-0.0702382
102	0x3e014f83	0.12627988
103	0x3dbc6524	0.091989785
104	0x3ddc3ff8	0.107543886
105	0xbe6471f1	-0.2230909
106	0xbdc22fc6	-0.09481768
107	0x3e9f64d4	0.31131613
108	0xbd76f653	-0.060293507
109	0x3e8e5b52	0.27804047
110	0x3dabdf6f	0.08392226
111	0xbe3b301e	-0.18280074
112	0xbe6b450d	-0.2297556
113	0x3d06439f	0.032779332
114	0xbdeb1e9e	-0.11480449
115	0x3e1d0299	0.15333022
116	0xbe0a80bf	-0.13525675
117	0xbdb0a3a2	-0.086249605
118	0xbf0f4fa8	-0.5598092
119	0xbdcd8bbd	-0.100364186
120	0xbaa8d6e7	-0.0012881429
121	0x3ec26786	0.37969607
122	0x3eb8f0c4	0.3612119
123	0x3e4fa020	0.20275927
124	0x3e6a7c12	0.22898892
125	0xbe87931f	-0.26479432
126	0x3d9f4c3a	0.07778211
127	0x3e467c83	0.19383435
128	0x3d6f89d3	0.05848105
129	0x3eb0f4aa	0.34561664
130	0x3ec80dea	0.39073116
131	0x3d37b9ed	0.044855047
132	0xbd81da8d	-0.063405134
133	0x3d1163f1	0.035495702
134	0x3eaa5e96	0.33275288
135	0xbd76c569	-0.06024686
136	0x3e144d2c	0.14482564
137	0xbe43b766	-0.1911293
138	0xbe2f3210	-0.17108941
139	0x3d9d789f	0.07689022
140	0x3e24a619	0.16078986
141	0xbe9fac1c	-0.31185997
142	0xbdeb7038	-0.114960134
143	0xbe92fc4a	-0.28708106
144	0x3dc01f34	0.093809515
145	0x3e1f139a	0.15534821
146	0xbdaaee65	-0.083462514
147	0x3e313047	0.17303573
148	0x3d159761	0.03652132
149	0xbe096b84	-0.1341992
150	0x3bdfffdd	0.006835921
151	0x3e09761a	0.13423958
152	0xbe20dd52	-0.15709427
153	0x3e6f0dcd	0.23345108
154	0x3e4a27a6	0.19741687
155	0x3d427b22	0.04748071
156	0xbe946c8c	-0.28989065
157	0xbead0071	-0.337894
158	0xbe000529	-0.12501968
159	0x3d0ff261	0.03514326
160	0xbd448c1b	-0.047985177
161	0x3e6d2ed8	0.231624
162	0x3ed0b90d	0.40766183
163	0x3e5614bf	0.20906352
164	0xbe5b3ba7	-0.21409474
165	0x3d22953a	0.039693095
166	0x3d56bbda	0.052425243
167	0x3df62994	0.12019649
168	0x3d710da4	0.0588509
169	0xbe64ac90	-0.22331452
170	0xbd7a5fb6	-0.061126433
171	0xbeb6d066	-0.3570587
172	0xbe858361	-0.26076797
173	0xbe8ca5f5	-0.27470365
174	0xbe82c118	-0.25537944
175	0xbedaf7d4	-0.42767203
176	0x3e3f6cc3	0.18693833
177	0x3de6d397	0.11270826
178	0xbdf14b58	-0.11781949
179	0xbe09297e	-0.13394734
180	0x3d4a2d31	0.049359504
181	0xbe09fe8a	-0.13476005
182	0xbdd8f8a8	-0.105943024
183	0xbe24578a	-0.16049019
184	0x3bd3f0f4	0.006467933
185	0xbeb7609b	-0.35815892
186	0x3de13014	0.10995498
187	0x3eb3ffb1	0.35156015
188	0xbf2ca748	-0.6744275
189	0x3e846dca	0.25865012
190	0xbd90d2e1	-0.07071472
191	0xbd856f82	-0.06515409
192	0x3c041485	0.008061533
193	0xbe167256	-0.14692053
194	0x3e1c8842	0.15286353
195	0x3d449020	0.04798901
196	0x3e3eb0cb	0.18622129
197	0x3cfef9b5	0.031124929
198	0xbe133456	-0.14375433
199	0x3dcfff62	0.10156132
200	0xbc9cf928	-0.019161776
201	0x3d408982	0.047006138
202	0xbe42f4e0	-0.19038725
203	0xbd3b1846	-0.045677446
204	0xbe380732	-0.17971495
205	0xbd9ee70a	-0.07758911
206	0x3d3d6fc8	0.04624918
207	0xbe0e2124	-0.1387983
208	0x3cc15556	0.023600262
209	0x3d8338a1	0.064072855
210	0x3cc9bdcc	0.024626635
211	0xbe0b38ff	-0.13595961
212	0xbe0c587a	-0.13705626
213	0xbd5f63d0	-0.054538548
214	0x3d929695	0.071576275
215	0x3e328e8c	0.1743719
216	0x3d32d262	0.043657668
217	0x3c040af0	0.008059248
218	0x3d57ee8e	0.052717738
219	0xbe4ec9cf	-0.20194171
220	0xbe323770	-0.1740396
221	0x3ccaf96f	0.024777142
222	0xbdcd106f	-0.100129
223	0x3d78a08e	0.060699992
224	0xbdff9322	-0.12479235
225	0xbee37424	-0.44424546
226	0xbe73b491	-0.2379935
227	0x3edac291	0.42726567
228	0x3c88cbdb	0.016698768
229	0x3bc636dd	0.0060490207
230	0x3ca9b99f	0.020718394
231	0x3e0fa9a0	0.1402955
232	0x3e3db83c	0.18527311
233	0xbe31df13	-0.17370252
234	0xbe133824	-0.14376885
235	0xbcecf5e2	-0.02892584
236	0xbd9fa536	-0.07795183
237	0xbd797efb	-0.060912114
238	0xbdc6af53	-0.09701409
239	0xbe514106	-0.2043496
240	0xbf09313e	-0.5359076
241	0xbc8fa391	-0.01753405
242	0x3e202b4b	0.15641515
243	0x3df21b00	0.11821556
244	0xbee9ea8c	-0.45686758
245	0x3dff5863	0.1246803
246	0x3e29bbee	0.16575596
247	0x3dd64c21	0.10463739
248	0x3e6d45b3	0.2317112
249	0xbdd8d0dd	-0.105867125
250	0x3de56df4	0.112026125
251	0xbe3234cd	-0.17402954
252	0x3e58b3ed	0.21162386
253	0x3db58558	0.08863324
254	0xbd5053a6	-0.050861023
255	0x3dd69c9f	0.10479092

fc2.bias f4 [32]
0	0xbe2921ae	-0.16516754
1	0xbd5a5544	-0.053303972
2	0x3cadf692	0.021235738
3	0xbbeedd61	-0.007289574
4	0xbbb3248a	-0.0054670023
5	0xbdd3885a	-0.10328741
6	0xbdba88bf	-0.091081135
7	0x3e44abf3	0.19206218
8	0xbda09dec	-0.07842621
9	0xbdfb7cae	-0.1227964
10	0x3e1b84b2	0.15187338
11	0x3e237eda	0.15966359
12	0xbba214f6	-0.0049463464
13	0xbda9fe68	-0.08300477
14	0xbe4c67d9	-0.1996149
15	0xbe848a0c	-0.2588657
16	0x3d64d9ca	0.055871762
17	0xbe073d70	-0.1320703
18	0x3e339803	0.17538457
19	0xbe6c07a6	-0.23049793
20	0xbd715787	-0.058921363
21	0x3def7248	0.11691719
22	0x3de9efcd	0.114226915
23	0x3e6d2284	0.23157698
24	0x3e3a4ce3	0.18193392
25	0x3ba4c26a	0.005028059
26	0xbde11d2a	-0.10991891
27	0xbe014648	-0.12624466
28	0xbe21f135	-0.1581467
29	0x3da4f1d3	0.08053937
30	0x3e74bde3	0.23900561
31	0xbdbc6212	-0.09198393

fc3.weight f4 [1, 32]
0	0xbf843359	-1.032817
1	0xbe091d93	-0.13390188
2	0x3e1f9d98	0.15587461
3	0x3ece3852	0.40277344
4	0xbece31dd	-0.40272418
5	0xbf2cb855	-0.6746877
6	0x3dab3b98	0.08360976
7	0xbee51f6d	-0.44750538
8	0xbfa5e76e	-1.2961252
9	0x3d016f4f	0.031600293
10	0xbefd2f04	-0.49449933
11	0xbe11a5f6	-0.14223465
12	0xbe12af0c	-0.14324588
13	0x3eb652c4	0.3561002
14	0xbf4da508	-0.8032994
15	0xbf212db6	-0.62960374
16	0xbf00e92c	-0.5035579
17	0xbf19daf3	-0.60099715
18	0xbd6010e9	-0.054703627
19	0xbf581068	-0.84400034
20	0x3e5028d8	0.2032808
21	0x3e9b7d22	0.30368906
22	0xbe060ba5	-0.1309038
23	0xbec4c1f3	-0.38429222
24	0x3e918254	0.28419745
25	0xbf3c1de8	-0.73483133
26	0x3d116159	0.03549323
27	0x3d475e59	0.04867396
28	0xbde3e6a1	-0.11127973
29	0x3e5a1c42	0.21299842
30	0x3e160a99	0.1465248
31	0x3ed4cd6b	0.4156297
