framework/vis_embedding_scripts/embedding_networks/embedding_model_withoutNormConstraints_MultiKeyNavA_dim3.pt (torch, 7575 bytes, 6 tensors)

fc1.weight f4 [32, 7]
000000 5c 73 39 bb 6e 9f 4f 3e 1e 46 9f be d5 6a 8e be
       -0.002829752 0.20275661 -0.31108183 -0.2781588
000010 86 11 15 be aa 92 cf 3d 96 63 f5 bb 6e e4 79 3e
       -0.14557466 0.10135396 -0.007488678 0.24403545
000020 a3 0d 4d be 25 cc 54 3c 7d ca 0c be a5 de 2b be
       -0.20024733 0.012988125 -0.13749118 -0.16784151
000030 cd 48 52 be d6 18 a6 be de 15 26 be 99 df 56 3e
       -0.20535584 -0.32440823 -0.16219279 0.20983733
000040 18 3c 44 3e fe e5 a8 3e 41 9a 85 be d5 db 8d be
       0.19163549 0.3298797 -0.2609425 -0.2770678
000050 c3 9e 1e 3d 53 12 eb 3e b0 e6 44 be a1 fc c0 3e
       0.038725626 0.45912418 -0.19228625 0.3769274
000060 cc b7 8a bd 24 e4 b1 3d f3 00 d1 3e 56 54 7c be
       -0.06773338 0.086860925 0.40821037 -0.24641547
000070 8d 10 8a be f0 13 34 be 15 bd 0a be 23 dd e6 3e
       -0.26965752 -0.1758573 -0.13548692 0.4509059
000080 4a f8 16 be 5a 95 df bb 1f 2d 0f be 7f 32 13 be
       -0.14743152 -0.006823224 -0.13982056 -0.14374731
000090 d4 55 bc be d0 a8 d9 3e 90 51 87 3e f4 4e 2a 3e
       -0.36784232 0.42511606 0.26429415 0.1663168
0000a0 6b d5 f7 3c 40 64 df bd 13 c6 23 3e c4 69 f6 be
       0.030253133 -0.10907793 0.15993528 -0.48127568
0000b0 a8 b7 9d be 7b 82 9f bd a3 2b 8e 3e 0c cf 8c 3e
       -0.3080418 -0.07788559 0.27767667 0.27501714
0000c0 d9 14 11 be 8a f6 25 3e b8 6d b0 3e b4 e6 c6 3e
       -0.14168109 0.16207328 0.3445871 0.38847888
0000d0 8f fa 83 3e f6 a6 15 3e 47 f2 85 3e bb de e2 bd
       0.257771 0.14614472 0.26161405 -0.11077639
0000e0 b0 67 78 3e 43 80 ef be f9 d2 1c be c7 6e 9a bc
       0.24258304 -0.46777543 -0.15314855 -0.01885165
0000f0 ab 46 66 3e 20 16 08 3e cc 47 0f be 1d 40 51 be
       0.22487895 0.1328969 -0.13992232 -0.20434614
000100 d3 3a 06 3e 4d d1 0b bd af 58 07 bd 73 b6 44 bd
       0.13108377 -0.03413515 -0.03304356 -0.04802556
000110 a3 3f 5d 3e 62 4d ae 3e 56 49 d5 be fb 88 19 bd
       0.21606307 0.34043413 -0.41657513 -0.03748415
000120 0c 5f 1c 3e bf 49 9b 3e 21 bf 75 3e 0d 36 b0 3e
       0.15270633 0.303297 0.23998691 0.34416237
000130 5d e5 ae 3d cd ee 90 be 01 db 89 bd cb 4b 66 be
       0.08539841 -0.2830719 -0.06731225 -0.2248985
000140 3d 23 70 be b6 a6 ff 3e 29 a3 9a 3e a2 23 fa be
       -0.23450942 0.49931878 0.30202606 -0.4885531
000150 56 9a 24 bd f6 40 02 be 65 10 8f bd 58 13 2a be
       -0.04018625 -0.12720093 -0.06985549 -0.16608942
000160 38 61 94 3d 8b 43 2e be f6 3e 03 3e 52 4d 99 3e
       0.072451055 -0.17017953 0.12816986 0.29941803
000170 36 95 dd 3e 22 48 d0 3d 93 25 0f be 38 97 a7 bc
       0.432779 0.10170008 -0.13979177 -0.020457849
000180 df c7 b5 3e a6 a7 76 3e 8d bb 72 be 76 c6 aa be
       0.35504052 0.2408739 -0.23704357 -0.3335454
000190 3e cf ea 3e bc 1f 6c 3e 24 f3 82 bd fd 85 16 be
       0.45861238 0.2305898 -0.06394032 -0.1469955
0001a0 54 b9 67 be 20 ee 2d 3e 6b ac f1 be 9e 7c 20 be
       -0.22629291 0.16985369 -0.47201857 -0.15672538
0001b0 8a 8c 21 3e 8c d6 fd 3d 0b 1e a2 bc 73 24 9f 3e
       0.15776268 0.12394437 -0.019789716 0.31082496
0001c0 5d 5b 19 be 4d 94 04 3f c3 b3 4f 3e a1 2a 3a be
       -0.14976259 0.5178879 0.20283417 -0.18180324
0001d0 ab d0 0c 3b 60 86 d3 3d 15 87 9b 3d ab 7d e2 bd
       0.002148668 0.10328364 0.07594124 -0.110591255
0001e0 07 15 e7 3d 6f af 81 3d 40 71 07 be 62 93 7a 3d
       0.112833075 0.063322894 -0.13226795 0.06117571
0001f0 67 57 02 bf aa 83 e2 bd ec c5 c1 bd bc 87 3c be
       -0.50914615 -0.11060269 -0.09461579 -0.18411154
000200 e2 65 07 be 84 9c 9e be 1c a8 a4 bd 74 76 a5 3d
       -0.13222459 -0.30978787 -0.08039877 0.08079234
000210 f5 23 7c be b2 93 99 3d 2d 1b e4 3e 40 9f 05 bd
       -0.24623092 0.07498874 0.44551983 -0.032622576
000220 7e 70 aa 3d e0 cc 34 3d 4b b9 d1 3c f2 00 2c 3e
       0.083222374 0.044140697 0.02560105 0.16797236
000230 b7 a7 f4 3e c6 0b 51 3e 5c c1 3e 3e b6 2e 5e 3c
       0.47784206 0.20414647 0.18628448 0.013560941
000240 01 7d d5 be 71 15 1b be aa 23 38 3e a9 92 20 bb
       -0.41696933 -0.15144898 0.17982355 -0.0024501479
000250 e8 5f 40 be 83 4b 94 be a2 1a b5 be a3 54 a3 be
       -0.18786585 -0.2896386 -0.35371882 -0.3190051
000260 95 02 9d bd ae 40 54 3e bf 9c 78 3e 28 7f f4 be
       -0.07666508 0.20727798 0.24278544 -0.47753263
000270 58 fa 99 3e d9 58 1f be 82 c5 ed bd dc 3b 9b bd
       0.3007381 -0.15561236 -0.11609937 -0.07579777
000280 64 f8 ca 3d b6 fb 97 bd 38 a7 ad be 32 17 a7 be
       0.09910658 -0.07421057 -0.3391664 -0.32634884
000290 a5 40 72 bd b8 2a a0 3b 10 d2 2f be c7 cb 11 3e
       -0.05914368 0.004887905 -0.17169976 0.14237891
0002a0 6a 67 ee be dd b3 d8 3c 1d 42 ab 3e 24 0e 4f be
       -0.46563274 0.026452953 0.33448878 -0.20220238
0002b0 a8 1d 9a 3e 15 ec 50 3e 3a c0 67 be 55 a8 73 3e
       0.3010075 0.20402558 -0.22631922 0.23794682
0002c0 43 f6 5e be 61 57 6c bc d9 1f b0 3e 00 97 77 be
       -0.21773629 -0.01442513 0.34399298 -0.24178696
0002d0 26 3d 20 3e 66 cd d5 be 17 47 dc 3e 79 14 82 3e
       0.15648326 -0.4175827 0.43022987 0.25406244
0002e0 b6 78 f4 3d d2 97 8d 3e c9 98 d3 3b 09 c4 0b 3d
       0.11937086 0.27654892 0.0064574224 0.0341225
0002f0 f5 54 3a be 9b 39 af 3e a6 e2 e9 3e 8b c0 83 3e
       -0.18196471 0.34223637 0.45680732 0.25732836
000300 c6 3b 9c bd a1 5a ec 3d fd 57 f0 bd a5 15 07 be
       -0.076285884 0.115407236 -0.117355324 -0.1319185
000310 e0 72 0a bf 4b e9 bd 3e 7d fd 73 be 61 81 88 bd
       -0.54081535 0.3709205 -0.23827167 -0.06665302
000320 71 5d d3 bd 7d 51 ff 3d 08 d7 3e be 57 97 79 bc
       -0.10320557 0.124667145 -0.18636715 -0.015233836
000330 eb 16 ae be 7b c1 d2 3e 5d cc f2 3c 7d 83 b1 3e
       -0.3400186 0.4116324 0.029638464 0.3467063
000340 6e d9 8f 3e c0 21 5a 3e fb 63 38 bb 04 05 99 bd
       0.28095573 0.21301937 -0.0028135765 -0.0747166
000350 62 3d 42 3d 4b c1 b0 bd f7 0b 2e bb 3e 88 45 3d
       0.04742182 -0.08630618 -0.0026557425 0.048225634
000360 e1 5e 97 be 2e a6 b3 bd dc 48 f4 3e 7e c0 27 be
       -0.29564574 -0.08771931 0.47711837 -0.16382024
000370 5d 5a 71 3d d2 ae e9 3e 13 64 02 3e f8 2e dc 3d
       0.058924068 0.4564119 0.12733488 0.10751146

fc1.bias f4 [32]
000000 57 b4 a7 be fc 09 83 3e c6 bf 49 be d3 b8 fb bb
       -0.32754776 0.25593555 -0.19702062 -0.007681945
000010 ec e0 2a bb 14 19 e4 3d 9d d9 8a bb b6 23 99 3e
       -0.0026074005 0.11137596 -0.0042373673 0.29910058
000020 25 04 69 3e a2 bf 05 3f 70 79 b5 3e 28 e3 21 be
       0.22755487 0.52245533 0.35444212 -0.1580931
000030 7a 71 a4 3e 47 51 6a be 04 1b de bd f0 91 9d 3e
       0.32117826 -0.22882567 -0.108449966 0.30775404
000040 a7 f4 01 3e 4f 49 fa 3e 91 2f f9 bd 39 d6 1b bd
       0.12690984 0.48884055 -0.12167276 -0.038046096
000050 a5 59 a2 3e 49 26 bb be 51 b2 f0 3e 33 06 a0 be
       0.31709018 -0.36552647 0.47011045 -0.3125473
000060 09 70 99 3c 43 4e 33 bd 72 5d 0f be 8e e5 eb 3d
       0.01873018 -0.043775808 -0.1400049 0.115183935
000070 ef 99 e2 3e 82 ae 0b 3e e0 c7 65 be e6 86 f6 bd
       0.44258067 0.13640788 -0.22439528 -0.120374486

fc2.weight f4 [32, 32]
000000 c1 6a 33 be f8 69 c2 3d 7d c2 d1 bd 64 20 2f bd
       -0.17521192 0.09492868 -0.10242174 -0.0427555
000010 e9 04 a6 bb b4 93 72 3e 58 e7 5f 3e c7 17 2e 3e
       -0.0050665033 0.23689157 0.21865594 0.17001258
000020 f3 94 1d 3e 0d 7b d1 3c 69 91 87 3d 58 b2 cb 3d
       0.15388851 0.02557137 0.06619532 0.09946126
000030 ca 6d 3b 3e 44 40 3d bd 4c ef 1b 3d 36 f1 cd 3d
       0.183036 -0.046203867 0.03807001 0.10055773
000040 f1 a3 70 be e2 76 b1 3d 76 2b cb bd 4a 96 8c be
       -0.23500039 0.08665253 -0.09920399 -0.2745841
000050 c5 a2 48 3e aa 1c eb bd c7 8c f1 3d 88 71 4f 3d
       0.19593342 -0.114800766 0.11794429 0.05064538
000060 c7 3f 1f 3d bc 75 94 bd 9a a5 80 be 41 77 43 3d
       0.038879182 -0.072490185 -0.25126344 0.04772115
000070 86 a0 2f 3e 07 11 86 3e 79 bd 72 bd 26 b1 4e bd
       0.17151079 0.26184866 -0.059262726 -0.05046191
000080 4a 94 25 bd 17 53 81 bc b0 1a e8 bd 6a 12 1c 3d
       -0.040424623 -0.01578669 -0.11333215 0.0381035
000090 b7 ed 64 3d ad 93 8e bc b8 d8 22 bd c6 ae 05 be
       0.055890765 -0.017404402 -0.03975746 -0.13054952
0000a0 98 2e c3 3d ab 9f 18 be 6c f3 4b 3d a6 3b 78 bd
       0.095303714 -0.14904658 0.049792692 -0.06060376
0000b0 17 ca b6 bd 1d 5f 83 3c a9 2a cc bd ef 57 0d 3d
       -0.08925264 0.016036564 -0.09969074 0.034507688
0000c0 c2 e7 9e 3c 46 24 18 be 9b 1d f1 3c 2d bc 67 3d
       0.01939762 -0.14857587 0.029433062 0.056575943
0000d0 ed 99 57 3d b4 4a b6 bc f0 3c 25 be 2a 3d df bc
       0.05263703 -0.022252418 -0.16136527 -0.027250845
0000e0 e4 57 34 3d 2a 77 af bd af 81 1e 3d e4 cd c5 3d
       0.04402913 -0.085676506 0.038697895 0.09658411
0000f0 87 ca d9 bd bd 5a a0 bc df b3 95 3d ff bb 12 bc
       -0.10634332 -0.019574517 0.07309698 -0.008955955
000100 dd ee 71 3c 16 87 0f 3d 6f 07 93 bd 94 ca 07 3d
       0.014766422 0.035040937 -0.07179152 0.033152178
000110 43 20 16 bd 42 8c 88 3d 01 d5 03 3d a5 dd 0a 3e
       -0.03665186 0.06667377 0.03218556 0.13561113
000120 0d 4d a7 3d 92 a0 e0 bc 2f e3 36 be c9 72 45 be
       0.08168993 -0.027420316 -0.17860101 -0.19282068
000130 ab 44 32 3e 03 27 68 3e 77 bd 6d be 84 0e 54 bc
       0.17409007 0.22671132 -0.23216806 -0.012942914
000140 2e 4b 68 3e ec 0a 0a 3e 4a 48 1e 3e d7 25 92 3e
       0.22684929 0.13480729 0.15457264 0.28544495
000150 59 59 29 3d e1 1b 7e bd 02 d1 20 3d 0c e1 ca 3d
       0.041344974 -0.062038306 0.039261825 0.099062055
000160 92 a2 de bd 22 59 76 3e 8a 03 67 3e 3a 5d 5d 3e
       -0.108708516 0.24057439 0.22559944 0.21617594
000170 6d f4 ad bd 92 12 2a bd 96 d5 7d bd 68 88 8e 3e
       -0.08493886 -0.041521616 -0.06197127 0.27838445
000180 78 4a 02 bd 61 b6 75 be 81 4d 88 bd ca 6a 17 be
       -0.0318093 -0.23995353 -0.06655408 -0.1478683
000190 d9 6b 4a be a7 8a 40 be a1 44 7a be 51 df fd 3c
       -0.19767703 -0.18802892 -0.24440242 0.030990275
0001a0 06 49 e1 bd 71 37 64 be 80 f4 48 be 49 be bc 3d
       -0.11000256 -0.22286774 -0.1962452 0.092159815
0001b0 e8 9a 02 3e 85 28 1f bc c3 ec 54 3c 91 ce 4c be
       0.12754405 -0.00971425 0.0129959015 -0.20000674
0001c0 1d 9e df bd 3a 01 3c 3e 9e 1e eb bd 46 83 f8 3d
       -0.109188296 0.18359843 -0.11480449 0.121344134
0001d0 80 15 24 be a2 a3 b0 bd db 90 1d bf bd 8b cd bd
       -0.16023827 -0.086249605 -0.61549157 -0.100364186
0001e0 24 28 22 3d 24 b9 3c bd 5b 09 10 3e 5f 14 43 3e
       0.039589062 -0.046075 0.14066069 0.1905074
0001f0 9f b9 78 3e 76 8e b6 be 3a 4c 9f 3d 11 13 3d 3e
       0.24289559 -0.35655564 0.07778211 0.18464305
000200 d3 89 6f 3d 81 d6 c7 3e 46 b0 86 3d 24 87 8f 3d
       0.05848105 0.3903084 0.0657659 0.07008198
000210 d4 e1 0c be 7c 77 97 bc 3f 61 51 3e c1 9c 16 be
       -0.13758022 -0.018489592 0.20447253 -0.14708234
000220 c8 c4 3a 3d 76 44 5a bd 37 3d 61 be cf ea 82 3c
       0.04559782 -0.053287946 -0.21996008 0.015981106
000230 84 20 92 3e 50 ec 23 be 94 a0 25 be e6 fe 95 3e
       0.28540432 -0.16008115 -0.16174537 0.29296035
000240 40 85 35 3d 69 f5 d9 3d 65 ee aa bd 9c c4 79 3d
       0.04431653 0.106425114 -0.083462514 0.060978517
000250 42 4f d5 3d 84 6b 09 be df 12 94 3e 1a 76 09 3e
       0.10415508 -0.1341992 0.28920648 0.13423958
000260 fc df 35 be 73 12 c9 3d 90 0a 8f be 59 90 01 be
       -0.17761225 0.09817972 -0.27937746 -0.1265272
000270 3a 6b bc 3e 2c 75 ff bd 29 05 00 be 30 8b 59 be
       0.36800557 -0.12473521 -0.12501968 -0.21244502
000280 1b 8c 44 bd 88 95 99 3c 18 74 a0 3d c2 51 29 3e
       -0.047985177 0.01874806 0.07834643 0.16535094
000290 10 83 26 bd 9c 12 55 be 72 1b 64 bd d5 13 43 3e
       -0.040652335 -0.2080788 -0.055690236 0.19050534
0002a0 4b 69 b4 3d f6 94 8c bd 7b 49 8c bc 69 87 15 be
       0.088091455 -0.068643495 -0.017124882 -0.14602436
0002b0 97 d2 a9 bc ca c2 31 3e 3a 90 67 be 14 df 6b 3b
       -0.0207303 0.17359462 -0.22613612 0.003599112
0002c0 d0 7c 72 3e 70 69 44 3d 58 4b f1 bd 2f d2 a2 3d
       0.23680425 0.047952116 -0.11781949 0.079502456
0002d0 db ca 09 3e 8a fe 09 be 98 9d 6e 3c 8a 57 24 be
       0.1345629 -0.13476005 0.01456394 -0.16049019
0002e0 5c 7c 31 be 88 0e 4d bd 76 04 d5 3d 00 30 75 3e
       -0.17332596 -0.050062686 0.104012415 0.23944092
0002f0 7a d5 04 be 1a 23 7b 3d e1 d2 90 bd 4c 9a 42 3e
       -0.1297206 0.061312772 -0.07071472 0.19004172
000300 85 14 04 3c dd 64 c0 bd e6 fd a9 3e 4c 1b 0d 3e
       0.008061533 -0.09394238 0.33201522 0.13779944
000310 bf 6a f9 3e 69 1e 84 3e e4 a7 5a 37 91 c7 f3 3d
       0.48714253 0.2580445 1.3032903e-05 0.11903299
000320 72 6b 2c 3c f5 8c 30 3e aa 14 8e bc 13 7f 63 3d
       0.010523664 0.17241271 -0.017343838 0.05554111
000330 cd c1 3a bd 1a 39 3b be 2f ed 5a 3e a0 b1 cd 3d
       -0.04559498 -0.18283501 0.21379541 0.10043645
000340 cb c4 3e bd 39 b6 3c 3e cc bd c9 3c 9d 63 89 be
       -0.046574395 0.18428887 0.024626635 -0.2683381
000350 f2 ba 9f bd d0 63 5f bd c7 d4 95 3e 8c 8e 32 3e
       -0.07799329 -0.054538548 0.292639 0.1743719
000360 23 13 d5 3d be 51 95 3d 66 db a9 bd ec 02 99 be
       0.10404041 0.07290982 -0.082938 -0.29885042
000370 d9 43 71 be 77 ab 77 3e 6f 10 cd bd 55 c9 a2 bd
       -0.23561038 0.24186502 -0.100129 -0.07948557
000380 22 93 ff bd bd 6a 83 be 73 cd ee bc 7c 90 86 3d
       -0.12479235 -0.25667372 -0.0291507 0.06570527
000390 da 95 df be c8 73 a8 3d 8b 29 40 3d c2 3c 32 3e
       -0.43669015 0.082252085 0.04691462 0.1740599
0003a0 ef f2 ae bd d2 43 9c ba 8d 69 82 bd 66 ac 74 bd
       -0.0854243 -0.0011922067 -0.063677885 -0.059734724
0003b0 6b f5 29 3d c9 50 b5 ba 16 37 79 3d 8a c9 23 be
       0.041493814 -0.001383328 0.06084355 -0.1599485
0003c0 35 ad 14 bd 2d b8 3c be 4b 2b 20 3e 1a 03 a3 3e
       -0.036297996 -0.18429632 0.15641515 0.31838304
0003d0 07 48 eb bd 63 58 ff 3d fe 7b 95 bd 21 4c d6 3d
       -0.114883475 0.1246803 -0.0729904 0.10463739
0003e0 a5 13 17 3e e4 37 00 be d5 43 0e 3e dc 3f 26 3e
       0.14753588 -0.1252132 0.13893063 0.16235298
0003f0 9a 54 13 bd 9e 22 b6 3c a6 53 50 bd 88 d2 84 3e
       -0.035969354 0.022233304 -0.050861023 0.25941873

fc2.bias f4 [32]
000000 8d ff 9c 3c 49 29 22 bd 30 e6 df bc 23 c7 b0 3d
       0.019164825 -0.039590154 -0.027331442 0.08631732
000010 c6 83 90 3e d3 68 3c bd f6 55 5f 3d c5 e0 44 3d
       0.28225535 -0.045998406 0.054525338 0.04806592
000020 07 f3 81 bc ae 7c fb bd 35 ae 93 3e 25 4b 9a 3d
       -0.015862955 -0.1227964 0.28843847 0.07533864
000030 c3 2a 10 be 31 c4 11 3e f4 c2 2a be 88 78 ab bd
       -0.14078812 0.14234997 -0.16675931 -0.08372599
000040 3f 74 b7 3e e2 6e 4b 3e 44 89 bc 3e bd f3 2c be
       0.35830876 0.19866517 0.36823475 -0.16889854
000050 28 c5 44 3e 5e 57 3f bd 88 70 a0 3d b8 5d c0 3e
       0.19215834 -0.04671418 0.07833964 0.37571502
000060 27 ca 83 3e f1 a1 b9 3c 6b 2c a6 bd 48 46 01 be
       0.25740167 0.022660227 -0.08113941 -0.12624466
000070 35 f1 21 be b5 9b 5e 3e 79 34 b5 3e f9 d4 0c be
       -0.1581467 0.21739085 0.35391596 -0.13753118

fc3.weight f4 [3, 32]
000000 3a f4 a3 3d 6c 1c 07 be 83 f4 b6 bd c6 46 bd 3e
       0.08005567 -0.13194436 -0.08933356 0.36968058
000010 61 ac 1d be c8 1b 86 be 8b 7a cb 3e 76 1d 91 bd
       -0.15397789 -0.2619307 0.3974193 -0.07085697
000020 ab 26 ce bd 4f 6f 01 3d 05 fa 80 3d 33 c8 80 be
       -0.10065969 0.031600293 0.062976874 -0.2515274
000030 9b 6d 89 be 61 58 0b 3e 34 dd 81 bb c4 ee a9 be
       -0.26841435 0.13607933 -0.003963137 -0.33189976
000040 46 f6 f1 bc 14 f7 1d be 60 2d 19 3d 27 ea 93 be
       -0.029536378 -0.15426284 0.03739679 -0.28889582
000050 6e 47 2c 3e c1 d9 54 3c 95 4c 5b be 42 93 a7 bd
       0.16824123 0.01299137 -0.21415932 -0.08182384
000060 f9 e4 e4 3e 35 4c ba bc 43 ef 3e 3d 59 5e 47 3d
       0.44705942 -0.022741416 0.046614897 0.04867396
000070 a1 e6 e3 bd ee 4c 6b 3e 05 8e 40 3e 21 ce 92 3d
       -0.11127973 0.22978565 0.18804176 0.07168222
000080 b9 41 27 be 42 93 22 bd 9d 23 93 3e 4f f1 c6 be
       -0.16333665 -0.039691217 0.28738108 -0.3885598
000090 4f ee 2c bd 64 ab 93 3e e9 b4 b4 be e3 73 81 3e
       -0.042219456 0.28841698 -0.35294273 0.25283727
0000a0 44 41 56 3e d3 68 28 3e 5d d4 03 be 41 7d 89 3e
       0.20923334 0.16446237 -0.12873979 0.26853374
0000b0 f3 ce 41 3c 65 1b fc bd b7 aa 2f 3d 55 9f 9d 3e
       0.011829126 -0.123099126 0.042887416 0.30785623
0000c0 12 e6 49 3d 0c c8 6c 3e d6 61 52 be 37 5c 68 3e
       0.049291678 0.23123187 -0.20545134 0.22691427
0000d0 b5 9a b0 bb be bd 05 3e d2 53 60 3e e8 12 7e bd
       -0.0053895363 0.13060662 0.21906975 -0.06202975
0000e0 4e 62 fc be a0 0a c5 3d 85 72 ce bd 0e 76 e7 3d
       -0.4929375 0.09621167 -0.100804366 0.11301814
0000f0 68 72 2c be 33 9a 64 be b5 f1 31 be ee 91 ed 3d
       -0.16840518 -0.22324447 -0.1737736 0.116000995
000100 92 f2 fb 3d 72 89 56 3d bd 7c 48 3c e0 96 b4 3e
       0.12302126 0.05237717 0.012236771 0.35271358
000110 9a 4c 0f 3f 4a 9c d5 bd e4 03 9a 3d c4 e9 db 3c
       0.5597626 -0.104302004 0.07520273 0.026844867
000120 92 ed e7 3e b3 f5 1a 3e 5e 4f 2b 3e 92 d6 ec bb
       0.4529844 0.1513279 0.16729495 -0.007227727
000130 cc c4 31 be 98 d3 93 3e dc d1 2a 3c a0 91 13 3f
       -0.17360228 0.2887237 0.010426011 0.5764408
000140 b4 9b fa 3e 49 04 43 3f fd 9f cf 3e b2 68 3c be
       0.48946917 0.76178414 0.4055175 -0.18399313
000150 47 24 b6 3e 0e 9c 14 be c8 9f ad 3e 28 cf bb 3e
       0.35574552 -0.14512655 0.33910966 0.36681485
000160 82 37 ea 3d 92 4d 9e bd 18 c8 21 be 7f 55 88 3d
       0.114363685 -0.07729639 -0.15798986 0.06656932
000170 d7 43 28 3d 76 03 ab 3e f2 5d d8 3e f8 5e 2f be
       0.041080322 0.33401078 0.42259175 -0.17126071

fc3.bias f4 [3]
000000 84 f4 f0 3d 67 1c 3b be 2f fc b9 3e
       0.11765388 -0.18272553 0.36325213
